…
<Mon Oct  3 18:42:56 2022>	[Info]:	The model compiled with errors.
<Mon Oct  3 18:43:01 2022>	[Info]:	Removed ('Conv2D ', ('', '')) from the layer list.
<Mon Oct  3 18:43:06 2022>	[Info]:	Adding new layer to the model:
		Conv2D [64, 3]
<Mon Oct  3 18:43:07 2022>	[Info]:	Compiling the current model:
		Input:8
		Dense [120]
		Conv2D [64, 3]
		Output:8

<Mon Oct  3 18:43:07 2022>	[Info]:	Model summary:
Model: "compiled-model-keras"
_________________________________________________________________
 Layer (type)                Output Shape              Param #   
=================================================================
 dense (Dense)               (None, 8, 8, 120)         240       
                                                                 
 output (Dense)              (None, 8, 8, 8)           968       
                                                                 
=================================================================
Total params: 1,208
Trainable params: 1,208
Non-trainable params: 0
_________________________________________________________________
Model: "compiled-model-keras"
_________________________________________________________________
 Layer (type)                Output Shape              Param #   
=================================================================
 dense_3 (Dense)             (None, 8, 8, 120)         240       
                                                                 
 conv2d (Conv2D)             (None, 6, 6, 64)          69184     
                                                                 
 output (Dense)              (None, 6, 6, 8)           520       
                                                                 
=================================================================
Total params: 69,944
Trainable params: 69,944
Non-trainable params: 0
_________________________________________________________________

<Mon Oct  3 18:43:07 2022>	[Info]:	The model compiled sucessfuly.
<Mon Oct  3 18:43:07 2022>	[Info]:	Scheme drawn sucessfuly.
<Mon Oct  3 18:44:52 2022>	[Info]:	Adding new layer to the model:
		Flatten 
<Mon Oct  3 18:44:53 2022>	[Info]:	Compiling the current model:
		Input:8
		Dense [120]
		Conv2D [64, 3]
		Flatten 
		Output:8

<Mon Oct  3 18:44:53 2022>	[Info]:	Model summary:
Model: "compiled-model-keras"
_________________________________________________________________
 Layer (type)                Output Shape              Param #   
=================================================================
 dense (Dense)               (None, 8, 8, 120)         240       
                                                                 
 output (Dense)              (None, 8, 8, 8)           968       
                                                                 
=================================================================
Total params: 1,208
Trainable params: 1,208
Non-trainable params: 0
_________________________________________________________________
Model: "compiled-model-keras"
_________________________________________________________________
 Layer (type)                Output Shape              Param #   
=================================================================
 dense_3 (Dense)             (None, 8, 8, 120)         240       
                                                                 
 conv2d (Conv2D)             (None, 6, 6, 64)          69184     
                                                                 
 output (Dense)              (None, 6, 6, 8)           520       
                                                                 
=================================================================
Total params: 69,944
Trainable params: 69,944
Non-trainable params: 0
_________________________________________________________________
Model: "compiled-model-keras"
_________________________________________________________________
 Layer (type)                Output Shape              Param #   
=================================================================
 dense_4 (Dense)             (None, 8, 8, 120)         240       
                                                                 
 conv2d_1 (Conv2D)           (None, 6, 6, 64)          69184     
                                                                 
 flatten (Flatten)           (None, 2304)              0         
                                                                 
 output (Dense)              (None, 8)                 18440     
                                                                 
=================================================================
Total params: 87,864
Trainable params: 87,864
Non-trainable params: 0
_________________________________________________________________

<Mon Oct  3 18:44:53 2022>	[Info]:	The model compiled sucessfuly.
<Mon Oct  3 18:44:53 2022>	[Info]:	Scheme drawn sucessfuly.[Mon Oct  3 18:58:33 2022]		Wellcome to CORNET!
…
<Mon Oct  3 19:07:51 2022>	[Info]:	Scheme drawn sucessfuly.
<Mon Oct  3 19:08:01 2022>	[Info]:	Adding new layer to the model:
		Dense [90]
<Mon Oct  3 19:08:01 2022>	[Info]:	Replaced ('Dense [20]', ('', '')) from the layer list.
<Mon Oct  3 19:08:02 2022>	[Info]:	Compiling the current model:
		Input:8
		Dense [80]
		Dense [90]
		Output:8

<Mon Oct  3 19:08:02 2022>	[Info]:	Model summary:
Model: "compiled-model-keras"
_________________________________________________________________
 Layer (type)                Output Shape              Param #   
=================================================================
 dense (Dense)               (None, 8, 8, 80)          160       
                                                                 
 dense_1 (Dense)             (None, 8, 8, 20)          1620      
                                                                 
 output (Dense)              (None, 8, 8, 8)           168       
                                                                 
=================================================================
Total params: 1,948
Trainable params: 1,948
Non-trainable params: 0
_________________________________________________________________
Model: "compiled-model-keras"
_________________________________________________________________
 Layer (type)                Output Shape              Param #   
=================================================================
 dense_2 (Dense)             (None, 8, 8, 80)          160       
                                                                 
 dense_3 (Dense)             (None, 8, 8, 90)          7290      
                                                                 
 output (Dense)              (None, 8, 8, 8)           728       
                                                                 
=================================================================
Total params: 8,178
Trainable params: 8,178
Non-trainable params: 0
_________________________________________________________________

<Mon Oct  3 19:08:02 2022>	[Info]:	The model compiled sucessfuly.
<Mon Oct  3 19:08:02 2022>	[Info]:	Scheme drawn sucessfuly.[Mon Oct  3 19:11:01 2022]		Wellcome to CORNET!
…
int() argument must be a string, a bytes-like object or a number, not 'NoneType'
<Mon Oct  3 19:35:56 2022>	[Info]:	The model compiled with errors.
<Mon Oct  3 19:35:59 2022>	[Info]:	Removed ('Dense ', ('', '')) from the layer list.
<Mon Oct  3 19:36:00 2022>	[Info]:	Compiling the current model:
		Input:8
		Dense [180]
		Output:8

<Mon Oct  3 19:36:00 2022>	[Info]:	Model summary:
Model: "compiled-model-keras"
_________________________________________________________________
 Layer (type)                Output Shape              Param #   
=================================================================
 dense (Dense)               (None, 8, 8, 120)         240       
                                                                 
 output (Dense)              (None, 8, 8, 8)           968       
                                                                 
=================================================================
Total params: 1,208
Trainable params: 1,208
Non-trainable params: 0
_________________________________________________________________
Model: "compiled-model-keras"
_________________________________________________________________
 Layer (type)                Output Shape              Param #   
=================================================================
 dense_3 (Dense)             (None, 8, 8, 180)         360       
                                                                 
 output (Dense)              (None, 8, 8, 8)           1448      
                                                                 
=================================================================
Total params: 1,808
Trainable params: 1,808
Non-trainable params: 0
_________________________________________________________________

<Mon Oct  3 19:36:00 2022>	[Info]:	The model compiled sucessfuly.
<Mon Oct  3 19:36:00 2022>	[Info]:	Scheme drawn sucessfuly.
<Mon Oct  3 19:36:11 2022>	[Info]:	Adding new layer to the model:
		Dropout 
<Mon Oct  3 19:36:12 2022>	[Info]:	Compiling the current model:
		Input:8
		Dense [180]
		Dropout 
		Output:8

<Mon Oct  3 19:36:12 2022>	[Info]:	Model summary:
Model: "compiled-model-keras"
_________________________________________________________________
 Layer (type)                Output Shape              Param #   
=================================================================
 dense (Dense)               (None, 8, 8, 120)         240       
                                                                 
 output (Dense)              (None, 8, 8, 8)           968       
                                                                 
=================================================================
Total params: 1,208
Trainable params: 1,208
Non-trainable params: 0
_________________________________________________________________
Model: "compiled-model-keras"
_________________________________________________________________
 Layer (type)                Output Shape              Param #   
=================================================================
 dense_3 (Dense)             (None, 8, 8, 180)         360       
                                                                 
 output (Dense)              (None, 8, 8, 8)           1448      
                                                                 
=================================================================
Total params: 1,808
Trainable params: 1,808
Non-trainable params: 0
_________________________________________________________________
Model: "compiled-model-keras"
_________________________________________________________________
 Layer (type)                Output Shape              Param #   
=================================================================
 dense_4 (Dense)             (None, 8, 8, 180)         360       
                                                                 
 dropout (Dropout)           (None, 8, 8, 180)         0         
                                                                 
 output (Dense)              (None, 8, 8, 8)           1448      
                                                                 
=================================================================
Total params: 1,808
Trainable params: 1,808
Non-trainable params: 0
_________________________________________________________________

<Mon Oct  3 19:36:12 2022>	[Info]:	The model compiled sucessfuly.
<Mon Oct  3 19:36:12 2022>	[Info]:	Scheme drawn sucessfuly.
<Mon Oct  3 19:36:18 2022>	[Info]:	Removed ('Dense [180]', ('', '')) from the layer list.
<Mon Oct  3 19:36:20 2022>	[Info]:	Compiling the current model:
		Input:8
		Dropout 
		Output:8

<Mon Oct  3 19:36:20 2022>	[Info]:	Model summary:
Model: "compiled-model-keras"
_________________________________________________________________
 Layer (type)                Output Shape              Param #   
=================================================================
 dense (Dense)               (None, 8, 8, 120)         240       
                                                                 
 output (Dense)              (None, 8, 8, 8)           968       
                                                                 
=================================================================
Total params: 1,208
Trainable params: 1,208
Non-trainable params: 0
_________________________________________________________________
Model: "compiled-model-keras"
_________________________________________________________________
 Layer (type)                Output Shape              Param #   
=================================================================
 dense_3 (Dense)             (None, 8, 8, 180)         360       
                                                                 
 output (Dense)              (None, 8, 8, 8)           1448      
                                                                 
=================================================================
Total params: 1,808
Trainable params: 1,808
Non-trainable params: 0
_________________________________________________________________
Model: "compiled-model-keras"
_________________________________________________________________
 Layer (type)                Output Shape              Param #   
=================================================================
 dense_4 (Dense)             (None, 8, 8, 180)         360       
                                                                 
 dropout (Dropout)           (None, 8, 8, 180)         0         
                                                                 
 output (Dense)              (None, 8, 8, 8)           1448      
                                                                 
=================================================================
Total params: 1,808
Trainable params: 1,808
Non-trainable params: 0
_________________________________________________________________
Model: "compiled-model-keras"
_________________________________________________________________
 Layer (type)                Output Shape              Param #   
=================================================================
 dropout_1 (Dropout)         (None, 8, 8, 1)           0         
                                                                 
 output (Dense)              (None, 8, 8, 8)           16        
                                                                 
=================================================================
Total params: 16
Trainable params: 16
Non-trainable params: 0
_________________________________________________________________

<Mon Oct  3 19:36:20 2022>	[Info]:	The model compiled sucessfuly.
<Mon Oct  3 19:36:20 2022>	[Info]:	Scheme drawn sucessfuly.[Tue Oct  4 12:25:01 2022]		Wellcome to CORNET!
…
<Tue Oct  4 12:36:10 2022>	[Info]:	Adding new layer to the model:
		Conv2D [62, 3]
<Tue Oct  4 12:36:10 2022>	[Info]:	Replaced ('Conv2D [62, 3]', (['activation'], ['relu'])) from the layer list.
<Tue Oct  4 12:36:10 2022>	[Info]:	Compiling the current model:
		Input:8
		Conv2D [62, 3]
		Flatten 
		Output:8

<Tue Oct  4 12:36:11 2022>	[Info]:	Model summary:
Model: "compiled-model-keras"
_________________________________________________________________
 Layer (type)                Output Shape              Param #   
=================================================================
 conv2d (Conv2D)             (None, 6, 6, 62)          620       
                                                                 
 flatten (Flatten)           (None, 2232)              0         
                                                                 
 output (Dense)              (None, 8)                 17864     
                                                                 
=================================================================
Total params: 18,484
Trainable params: 18,484
Non-trainable params: 0
_________________________________________________________________
Model: "compiled-model-keras"
_________________________________________________________________
 Layer (type)                Output Shape              Param #   
=================================================================
 conv2d_1 (Conv2D)           (None, 6, 6, 62)          620       
                                                                 
 flatten_1 (Flatten)         (None, 2232)              0         
                                                                 
 output (Dense)              (None, 8)                 17864     
                                                                 
=================================================================
Total params: 18,484
Trainable params: 18,484
Non-trainable params: 0
_________________________________________________________________

<Tue Oct  4 12:36:11 2022>	[Info]:	The model compiled sucessfuly.
<Tue Oct  4 12:36:11 2022>	[Info]:	Scheme drawn sucessfuly.
<Tue Oct  4 12:37:50 2022>	[Info]:	Compiling the current model:
		Input:8
		Conv2D [62, 3]
		Flatten 
		Output:8

<Tue Oct  4 12:37:50 2022>	[Info]:	Model summary:
Model: "compiled-model-keras"
_________________________________________________________________
 Layer (type)                Output Shape              Param #   
=================================================================
 conv2d (Conv2D)             (None, 6, 6, 62)          620       
                                                                 
 flatten (Flatten)           (None, 2232)              0         
                                                                 
 output (Dense)              (None, 8)                 17864     
                                                                 
=================================================================
Total params: 18,484
Trainable params: 18,484
Non-trainable params: 0
_________________________________________________________________
Model: "compiled-model-keras"
_________________________________________________________________
 Layer (type)                Output Shape              Param #   
=================================================================
 conv2d_1 (Conv2D)           (None, 6, 6, 62)          620       
                                                                 
 flatten_1 (Flatten)         (None, 2232)              0         
                                                                 
 output (Dense)              (None, 8)                 17864     
                                                                 
=================================================================
Total params: 18,484
Trainable params: 18,484
Non-trainable params: 0
_________________________________________________________________
Model: "compiled-model-keras"
_________________________________________________________________
 Layer (type)                Output Shape              Param #   
=================================================================
 conv2d_2 (Conv2D)           (None, 6, 6, 62)          620       
                                                                 
 flatten_2 (Flatten)         (None, 2232)              0         
                                                                 
 output (Dense)              (None, 8)                 17864     
                                                                 
=================================================================
Total params: 18,484
Trainable params: 18,484
Non-trainable params: 0
_________________________________________________________________

<Tue Oct  4 12:37:50 2022>	[Info]:	The model compiled sucessfuly.
<Tue Oct  4 12:37:50 2022>	[Info]:	Scheme drawn sucessfuly.[Tue Oct  4 12:41:02 2022]		Wellcome to CORNET!
<Tue Oct  4 12:41:02 2022>	[Info]:	Current available devices:
	Device 0:	/device:CPU:0		Role: None
<Tue Oct  4 12:41:21 2022>	[Info]:	Adding new layer to the model:
		Conv2D [62, 3]
<Tue Oct  4 12:41:22 2022>	[Info]:	Compiling the current model:
		Input:8
		Conv2D [62, 3]
		Output:8

<Tue Oct  4 12:41:23 2022>	[Info]:	Model summary:
Model: "compiled-model-keras"
_________________________________________________________________
 Layer (type)                Output Shape              Param #   
=================================================================
 conv2d (Conv2D)             (None, 6, 6, 62)          620       
                                                                 
 output (Dense)              (None, 6, 6, 8)           504       
                                                                 
=================================================================
Total params: 1,124
Trainable params: 1,124
Non-trainable params: 0
_________________________________________________________________

<Tue Oct  4 12:41:23 2022>	[Info]:	The model compiled sucessfuly.
<Tue Oct  4 12:41:23 2022>	[Info]:	Scheme drawn sucessfuly.
<Tue Oct  4 12:42:16 2022>	[Info]:	Compiling the current model:
		Input:8
		Conv2D [62, 3]
		Output:8

<Tue Oct  4 12:42:16 2022>	[Info]:	Model summary:
Model: "compiled-model-keras"
_________________________________________________________________
 Layer (type)                Output Shape              Param #   
=================================================================
 conv2d (Conv2D)             (None, 6, 6, 62)          620       
                                                                 
 output (Dense)              (None, 6, 6, 8)           504       
                                                                 
=================================================================
Total params: 1,124
Trainable params: 1,124
Non-trainable params: 0
_________________________________________________________________
Model: "compiled-model-keras"
_________________________________________________________________
 Layer (type)                Output Shape              Param #   
=================================================================
 conv2d_1 (Conv2D)           (None, 6, 6, 62)          620       
                                                                 
 output (Dense)              (None, 6, 6, 8)           504       
                                                                 
=================================================================
Total params: 1,124
Trainable params: 1,124
Non-trainable params: 0
_________________________________________________________________

<Tue Oct  4 12:42:16 2022>	[Info]:	The model compiled sucessfuly.
<Tue Oct  4 12:42:16 2022>	[Info]:	Scheme drawn sucessfuly.[Tue Oct  4 12:42:54 2022]		Wellcome to CORNET!
…
<Tue Oct  4 17:29:42 2022>	[Info]:	The model compiled sucessfuly.
<Tue Oct  4 17:29:43 2022>	[Info]:	Scheme drawn sucessfuly.
<Tue Oct  4 17:29:43 2022>	[Info]:	Imported model C:/Users/ialve/Desktop/cnet/db/compilers/ll.
<Tue Oct  4 17:29:47 2022>	[Info]:	Compiling the current model:
		Input:8
		Dense [180]
		Output:8

<Tue Oct  4 17:29:47 2022>	[Info]:	Model summary:
Model: "compiled-model-keras"
_________________________________________________________________
 Layer (type)                Output Shape              Param #   
=================================================================
 dense (Dense)               (None, 8, 8, 180)         360       
                                                                 
 output (Dense)              (None, 8, 8, 8)           1448      
                                                                 
=================================================================
Total params: 1,808
Trainable params: 1,808
Non-trainable params: 0
_________________________________________________________________
Model: "compiled-model-keras"
_________________________________________________________________
 Layer (type)                Output Shape              Param #   
=================================================================
 dense_1 (Dense)             (None, 8, 8, 180)         360       
                                                                 
 output (Dense)              (None, 8, 8, 8)           1448      
                                                                 
=================================================================
Total params: 1,808
Trainable params: 1,808
Non-trainable params: 0
_________________________________________________________________
Model: "compiled-model-keras"
_________________________________________________________________
 Layer (type)                Output Shape              Param #   
=================================================================
 dense_2 (Dense)             (None, 8, 8, 180)         360       
                                                                 
 output (Dense)              (None, 8, 8, 8)           1448      
                                                                 
=================================================================
Total params: 1,808
Trainable params: 1,808
Non-trainable params: 0
_________________________________________________________________

<Tue Oct  4 17:29:47 2022>	[Info]:	The model compiled sucessfuly.
<Tue Oct  4 17:29:48 2022>	[Info]:	Scheme drawn sucessfuly.
<Tue Oct  4 17:29:48 2022>	[Info]:	Imported model C:/Users/ialve/Desktop/cnet/db/compilers/ll.
<Tue Oct  4 17:29:51 2022>	[Info]:	Model exported to C:/Users/ialve/Desktop/cnet/db/compilers/ll.
<Tue Oct  4 17:29:55 2022>	[Info]:	Adding new layer to the model:
		Dense [180]
<Tue Oct  4 17:29:57 2022>	[Info]:	Compiling the current model:
		Input:8
		Dense [180]
		Dense [180]
		Output:8

<Tue Oct  4 17:29:57 2022>	[Info]:	Model summary:
Model: "compiled-model-keras"
_________________________________________________________________
 Layer (type)                Output Shape              Param #   
=================================================================
 dense (Dense)               (None, 8, 8, 180)         360       
                                                                 
 output (Dense)              (None, 8, 8, 8)           1448      
                                                                 
=================================================================
Total params: 1,808
Trainable params: 1,808
Non-trainable params: 0
_________________________________________________________________
Model: "compiled-model-keras"
_________________________________________________________________
 Layer (type)                Output Shape              Param #   
=================================================================
 dense_1 (Dense)             (None, 8, 8, 180)         360       
                                                                 
 output (Dense)              (None, 8, 8, 8)           1448      
                                                                 
=================================================================
Total params: 1,808
Trainable params: 1,808
Non-trainable params: 0
_________________________________________________________________
Model: "compiled-model-keras"
_________________________________________________________________
 Layer (type)                Output Shape              Param #   
=================================================================
 dense_2 (Dense)             (None, 8, 8, 180)         360       
                                                                 
 output (Dense)              (None, 8, 8, 8)           1448      
                                                                 
=================================================================
Total params: 1,808
Trainable params: 1,808
Non-trainable params: 0
_________________________________________________________________
Model: "compiled-model-keras"
_________________________________________________________________
 Layer (type)                Output Shape              Param #   
=================================================================
 dense_3 (Dense)             (None, 8, 8, 180)         360       
                                                                 
 dense_4 (Dense)             (None, 8, 8, 180)         32580     
                                                                 
 output (Dense)              (None, 8, 8, 8)           1448      
                                                                 
=================================================================
Total params: 34,388
Trainable params: 34,388
Non-trainable params: 0
_________________________________________________________________

<Tue Oct  4 17:29:57 2022>	[Info]:	The model compiled sucessfuly.
<Tue Oct  4 17:29:58 2022>	[Info]:	Scheme drawn sucessfuly.
<Tue Oct  4 17:30:00 2022>	[Info]:	Compiling the current model:
		Input:8
		Dense [180]
		Output:8

<Tue Oct  4 17:30:00 2022>	[Info]:	Model summary:
Model: "compiled-model-keras"
_________________________________________________________________
 Layer (type)                Output Shape              Param #   
=================================================================
 dense (Dense)               (None, 8, 8, 180)         360       
                                                                 
 output (Dense)              (None, 8, 8, 8)           1448      
                                                                 
=================================================================
Total params: 1,808
Trainable params: 1,808
Non-trainable params: 0
_________________________________________________________________
Model: "compiled-model-keras"
_________________________________________________________________
 Layer (type)                Output Shape              Param #   
=================================================================
 dense_1 (Dense)             (None, 8, 8, 180)         360       
                                                                 
 output (Dense)              (None, 8, 8, 8)           1448      
                                                                 
=================================================================
Total params: 1,808
Trainable params: 1,808
Non-trainable params: 0
_________________________________________________________________
Model: "compiled-model-keras"
_________________________________________________________________
 Layer (type)                Output Shape              Param #   
=================================================================
 dense_2 (Dense)             (None, 8, 8, 180)         360       
                                                                 
 output (Dense)              (None, 8, 8, 8)           1448      
                                                                 
=================================================================
Total params: 1,808
Trainable params: 1,808
Non-trainable params: 0
_________________________________________________________________
Model: "compiled-model-keras"
_________________________________________________________________
 Layer (type)                Output Shape              Param #   
=================================================================
 dense_3 (Dense)             (None, 8, 8, 180)         360       
                                                                 
 dense_4 (Dense)             (None, 8, 8, 180)         32580     
                                                                 
 output (Dense)              (None, 8, 8, 8)           1448      
                                                                 
=================================================================
Total params: 34,388
Trainable params: 34,388
Non-trainable params: 0
_________________________________________________________________
Model: "compiled-model-keras"
_________________________________________________________________
 Layer (type)                Output Shape              Param #   
=================================================================
 dense_5 (Dense)             (None, 8, 8, 180)         360       
                                                                 
 output (Dense)              (None, 8, 8, 8)           1448      
                                                                 
=================================================================
Total params: 1,808
Trainable params: 1,808
Non-trainable params: 0
_________________________________________________________________

<Tue Oct  4 17:30:00 2022>	[Info]:	The model compiled sucessfuly.
<Tue Oct  4 17:30:00 2022>	[Info]:	Scheme drawn sucessfuly.
<Tue Oct  4 17:30:00 2022>	[Info]:	Imported model C:/Users/ialve/Desktop/cnet/db/compilers/ll.[Tue Oct  4 17:31:38 2022]		Wellcome to CORNET!
…
<Wed Oct  5 17:43:07 2022>	[Info]:	Training the current model.
<Wed Oct  5 17:43:28 2022>	[Info]:	Training stopped.
<Wed Oct  5 17:43:56 2022>	[Info]:	Model exported to C:/Users/ialve/Desktop/cnet/db/compilers/test_trained.
<Wed Oct  5 17:44:05 2022>	[Info]:	Compiling the current model:
		Input:32
		Conv2D [64, 3]
		Flatten 
		Dense [80]
		Output:32

<Wed Oct  5 17:44:05 2022>	[Info]:	Model summary:
Model: "compiled-model-keras"
_________________________________________________________________
 Layer (type)                Output Shape              Param #   
=================================================================
 conv2d (Conv2D)             (None, 30, 30, 64)        640       
                                                                 
 flatten (Flatten)           (None, 57600)             0         
                                                                 
 dense (Dense)               (None, 80)                4608080   
                                                                 
 output (Dense)              (None, 32)                2592      
                                                                 
=================================================================
Total params: 4,611,312
Trainable params: 4,611,312
Non-trainable params: 0
_________________________________________________________________
Model: "compiled-model-keras"
_________________________________________________________________
 Layer (type)                Output Shape              Param #   
=================================================================
 conv2d_1 (Conv2D)           (None, 30, 30, 64)        640       
                                                                 
 flatten_1 (Flatten)         (None, 57600)             0         
                                                                 
 dense_1 (Dense)             (None, 80)                4608080   
                                                                 
 output (Dense)              (None, 32)                2592      
                                                                 
=================================================================
Total params: 4,611,312
Trainable params: 4,611,312
Non-trainable params: 0
_________________________________________________________________

<Wed Oct  5 17:44:05 2022>	[Info]:	The model compiled sucessfuly.
<Wed Oct  5 17:44:05 2022>	[Info]:	Scheme drawn sucessfuly.
…
<Fri Oct  7 15:05:30 2022>	[Info]:	Opening dual interface for database building.
<Fri Oct  7 15:06:24 2022>	[Info]:	Database test_dusan loaded.
<Fri Oct  7 15:06:30 2022>	[Info]:	Device /device:CPU:0 set up for Train.
<Fri Oct  7 15:06:38 2022>	[Info]:	Compiling the current model:
		Input:8
		Conv2D [64, 2]
		Flatten 
		Dense [180]
		Output:8

<Fri Oct  7 15:06:38 2022>	[Info]:	Model summary:
Model: "compiled-model-keras"
_________________________________________________________________
 Layer (type)                Output Shape              Param #   
=================================================================
 conv2d (Conv2D)             (None, 7, 7, 64)          320       
                                                                 
 flatten (Flatten)           (None, 3136)              0         
                                                                 
 dense (Dense)               (None, 180)               564660    
                                                                 
 output (Dense)              (None, 8)                 1448      
                                                                 
=================================================================
Total params: 566,428
Trainable params: 566,428
Non-trainable params: 0
_________________________________________________________________
Model: "compiled-model-keras"
_________________________________________________________________
 Layer (type)                Output Shape              Param #   
=================================================================
 conv2d_1 (Conv2D)           (None, 7, 7, 64)          320       
                                                                 
 flatten_1 (Flatten)         (None, 3136)              0         
                                                                 
 dense_1 (Dense)             (None, 180)               564660    
                                                                 
 output (Dense)              (None, 8)                 1448      
                                                                 
=================================================================
Total params: 566,428
Trainable params: 566,428
Non-trainable params: 0
_________________________________________________________________

<Fri Oct  7 15:06:38 2022>	[Info]:	The model compiled sucessfuly.
<Fri Oct  7 15:06:39 2022>	[Info]:	Scheme drawn sucessfuly.
…
<Fri Oct  7 18:12:32 2022>	[Info]:	Adding new layer to the model:
		Dense [80]
<Fri Oct  7 18:12:40 2022>	[Info]:	Compiling the current model:
		Input:8
		Conv2D [64, 2]
		Flatten 
		Dense [180]
		Dense [80]
		Output:8

<Fri Oct  7 18:12:40 2022>	[Info]:	Model summary:
Model: "model"
_________________________________________________________________
 Layer (type)                Output Shape              Param #   
=================================================================
 input_1 (InputLayer)        [(None, 8, 8, 1)]         0         
                                                                 
 conv2d (Conv2D)             (None, 7, 7, 64)          320       
                                                                 
 flatten (Flatten)           (None, 3136)              0         
                                                                 
 dense (Dense)               (None, 180)               564660    
                                                                 
 dense_1 (Dense)             (None, 80)                14480     
                                                                 
 output (Dense)              (None, 8)                 648       
                                                                 
=================================================================
Total params: 580,108
Trainable params: 580,108
Non-trainable params: 0
_________________________________________________________________

<Fri Oct  7 18:12:40 2022>	[Info]:	The model compiled sucessfuly.
<Fri Oct  7 18:12:41 2022>	[Info]:	Scheme drawn sucessfuly.
…
	Device 0:	/device:CPU:0		Role: None	Device 1:	/device:GPU:0		Role: None
<Sun Oct  9 17:19:51 2022>	[Info]:	Device /device:GPU:0 set up for Train.
<Sun Oct  9 17:19:55 2022>	[Info]:	Database test_dusan loaded.
<Sun Oct  9 17:20:01 2022>	[Info]:	Model summary:
Model: "model"
_________________________________________________________________
 Layer (type)                Output Shape              Param #   
=================================================================
 input_1 (InputLayer)        [(None, 8, 8, 1)]         0         
                                                                 
 conv2d (Conv2D)             (None, 7, 7, 64)          320       
                                                                 
 flatten (Flatten)           (None, 3136)              0         
                                                                 
 dense (Dense)               (None, 180)               564660    
                                                                 
 dense_1 (Dense)             (None, 80)                14480     
                                                                 
 output (Dense)              (None, 8)                 648       
                                                                 
=================================================================
Total params: 580,108
Trainable params: 580,108
Non-trainable params: 0
_________________________________________________________________

<Sun Oct  9 17:20:48 2022>	[Info]:	Model summary:
Model: "model"
_________________________________________________________________
 Layer (type)                Output Shape              Param #   
=================================================================
 input_1 (InputLayer)        [(None, 8, 8, 1)]         0         
                                                                 
 conv2d (Conv2D)             (None, 7, 7, 64)          320       
                                                                 
 flatten (Flatten)           (None, 3136)              0         
                                                                 
 dense (Dense)               (None, 180)               564660    
                                                                 
 dense_1 (Dense)             (None, 80)                14480     
                                                                 
 output (Dense)              (None, 8)                 648       
                                                                 
=================================================================
Total params: 580,108
Trainable params: 580,108
Non-trainable params: 0
_________________________________________________________________
Model: "model"
_________________________________________________________________
 Layer (type)                Output Shape              Param #   
=================================================================
 input_1 (InputLayer)        [(None, 8, 8, 1)]         0         
                                                                 
 conv2d (Conv2D)             (None, 7, 7, 64)          320       
                                                                 
 flatten (Flatten)           (None, 3136)              0         
                                                                 
 dense (Dense)               (None, 180)               564660    
                                                                 
 dense_1 (Dense)             (None, 80)                14480     
                                                                 
 output (Dense)              (None, 8)                 648       
                                                                 
=================================================================
Total params: 580,108
Trainable params: 580,108
Non-trainable params: 0
_________________________________________________________________

[Sun Oct  9 17:20:55 2022]		Finishing the current session.

[Sun Oct  9 17:21:02 2022]		Welcome to CORNET!
<Sun Oct  9 17:21:03 2022>	[Info]:	Current available devices:
…
<Mon Oct 10 21:19:53 2022>	[Info]:	Device /device:GPU:0 set up for Train.
<Mon Oct 10 21:20:00 2022>	[Info]:	Compiling the current model:
		Input:8
		Conv2D [64, 2]
		Flatten 
		Dense [180]
		Dense [80]
		Output:8

<Mon Oct 10 21:20:00 2022>	[Info]:	Model summary:
Model: "model"
_________________________________________________________________
 Layer (type)                Output Shape              Param #   
=================================================================
 input_1 (InputLayer)        [(None, 8, 8, 1)]         0         
                                                                 
 conv2d (Conv2D)             (None, 7, 7, 64)          320       
                                                                 
 flatten (Flatten)           (None, 3136)              0         
                                                                 
 dense (Dense)               (None, 180)               564660    
                                                                 
 dense_1 (Dense)             (None, 80)                14480     
                                                                 
 output (Dense)              (None, 8)                 648       
                                                                 
=================================================================
Total params: 580,108
Trainable params: 580,108
Non-trainable params: 0
_________________________________________________________________
Model: "model"
_________________________________________________________________
 Layer (type)                Output Shape              Param #   
=================================================================
 input_1 (InputLayer)        [(None, 8, 8, 1)]         0         
                                                                 
 conv2d (Conv2D)             (None, 7, 7, 64)          320       
                                                                 
 flatten (Flatten)           (None, 3136)              0         
                                                                 
 dense (Dense)               (None, 180)               564660    
                                                                 
 dense_1 (Dense)             (None, 80)                14480     
                                                                 
 output (Dense)              (None, 8)                 648       
                                                                 
=================================================================
Total params: 580,108
Trainable params: 580,108
Non-trainable params: 0
_________________________________________________________________

<Mon Oct 10 21:20:00 2022>	[Info]:	The model compiled sucessfuly.
<Mon Oct 10 21:20:01 2022>	[Info]:	Scheme drawn sucessfuly.
…
<Thu Oct 13 13:32:42 2022>	[Info]:	Adding new layer to the model:
		Dense [80]
<Thu Oct 13 13:32:47 2022>	[Info]:	Compiling the current model:
		Input:8
		Conv2D [62, 2]
		Flatten 
		Dense [180]
		Dense [80]
		Output:8

<Thu Oct 13 13:32:47 2022>	[Info]:	Model summary:
Model: "model"
_________________________________________________________________
 Layer (type)                Output Shape              Param #   
=================================================================
 input_1 (InputLayer)        [(None, 8, 8, 1)]         0         
                                                                 
 conv2d (Conv2D)             (None, 7, 7, 62)          310       
                                                                 
 flatten (Flatten)           (None, 3038)              0         
                                                                 
 dense (Dense)               (None, 180)               547020    
                                                                 
 dense_1 (Dense)             (None, 80)                14480     
                                                                 
 output (Dense)              (None, 8)                 648       
                                                                 
=================================================================
Total params: 562,458
Trainable params: 562,458
Non-trainable params: 0
_________________________________________________________________

<Thu Oct 13 13:32:47 2022>	[Info]:	The model compiled sucessfuly.
<Thu Oct 13 13:32:48 2022>	[Info]:	Scheme drawn sucessfuly.
…
<Mon Oct 17 16:00:09 2022>	[Info]:	Scheme drawn sucessfuly.
<Mon Oct 17 16:00:12 2022>	[Info]:	Compiling the current model:
		Input:8
		Conv2D [64, 2]
		Flatten 
		Dense [180]
		Output:8

<Mon Oct 17 16:00:12 2022>	[Info]:	Model summary:
Model: "model"
_________________________________________________________________
 Layer (type)                Output Shape              Param #   
=================================================================
 input_1 (InputLayer)        [(None, 8, 8, 1)]         0         
                                                                 
 conv2d (Conv2D)             (None, 7, 7, 64)          320       
                                                                 
 flatten (Flatten)           (None, 3136)              0         
                                                                 
 dense (Dense)               (None, 180)               564660    
                                                                 
 output (Dense)              (None, 8)                 1448      
                                                                 
=================================================================
Total params: 566,428
Trainable params: 566,428
Non-trainable params: 0
_________________________________________________________________
Model: "model_1"
_________________________________________________________________
 Layer (type)                Output Shape              Param #   
=================================================================
 input_2 (InputLayer)        [(None, 8, 8, 1)]         0         
                                                                 
 conv2d_1 (Conv2D)           (None, 7, 7, 64)          320       
                                                                 
 flatten_1 (Flatten)         (None, 3136)              0         
                                                                 
 dense_1 (Dense)             (None, 180)               564660    
                                                                 
 output (Dense)              (None, 8)                 1448      
                                                                 
=================================================================
Total params: 566,428
Trainable params: 566,428
Non-trainable params: 0
_________________________________________________________________
Model: "model_2"
_________________________________________________________________
 Layer (type)                Output Shape              Param #   
=================================================================
 input_3 (InputLayer)        [(None, 8, 8, 1)]         0         
                                                                 
 conv2d_2 (Conv2D)           (None, 7, 7, 64)          320       
                                                                 
 flatten_2 (Flatten)         (None, 3136)              0         
                                                                 
 dense_2 (Dense)             (None, 180)               564660    
                                                                 
 output (Dense)              (None, 8)                 1448      
                                                                 
=================================================================
Total params: 566,428
Trainable params: 566,428
Non-trainable params: 0
_________________________________________________________________

<Mon Oct 17 16:00:12 2022>	[Info]:	The model compiled sucessfuly.
<Mon Oct 17 16:00:13 2022>	[Info]:	Scheme drawn sucessfuly.
<Mon Oct 17 16:00:18 2022>	[Info]:	Compiling the current model:
		Input:8
		Conv2D [64, 2]
		Flatten 
		Dense [180]
		Output:8

<Mon Oct 17 16:00:18 2022>	[Info]:	Model summary:
Model: "model"
_________________________________________________________________
 Layer (type)                Output Shape              Param #   
=================================================================
 input_1 (InputLayer)        [(None, 8, 8, 1)]         0         
                                                                 
 conv2d (Conv2D)             (None, 7, 7, 64)          320       
                                                                 
 flatten (Flatten)           (None, 3136)              0         
                                                                 
 dense (Dense)               (None, 180)               564660    
                                                                 
 output (Dense)              (None, 8)                 1448      
                                                                 
=================================================================
Total params: 566,428
Trainable params: 566,428
Non-trainable params: 0
_________________________________________________________________
Model: "model_1"
_________________________________________________________________
 Layer (type)                Output Shape              Param #   
=================================================================
 input_2 (InputLayer)        [(None, 8, 8, 1)]         0         
                                                                 
 conv2d_1 (Conv2D)           (None, 7, 7, 64)          320       
                                                                 
 flatten_1 (Flatten)         (None, 3136)              0         
                                                                 
 dense_1 (Dense)             (None, 180)               564660    
                                                                 
 output (Dense)              (None, 8)                 1448      
                                                                 
=================================================================
Total params: 566,428
Trainable params: 566,428
Non-trainable params: 0
_________________________________________________________________
Model: "model_2"
_________________________________________________________________
 Layer (type)                Output Shape              Param #   
=================================================================
 input_3 (InputLayer)        [(None, 8, 8, 1)]         0         
                                                                 
 conv2d_2 (Conv2D)           (None, 7, 7, 64)          320       
                                                                 
 flatten_2 (Flatten)         (None, 3136)              0         
                                                                 
 dense_2 (Dense)             (None, 180)               564660    
                                                                 
 output (Dense)              (None, 8)                 1448      
                                                                 
=================================================================
Total params: 566,428
Trainable params: 566,428
Non-trainable params: 0
_________________________________________________________________
Model: "model_3"
_________________________________________________________________
 Layer (type)                Output Shape              Param #   
=================================================================
 input_4 (InputLayer)        [(None, 8, 8, 1)]         0         
                                                                 
 conv2d_3 (Conv2D)           (None, 7, 7, 64)          320       
                                                                 
 flatten_3 (Flatten)         (None, 3136)              0         
                                                                 
 dense_3 (Dense)             (None, 180)               564660    
                                                                 
 output (Dense)              (None, 8)                 1448      
                                                                 
=================================================================
Total params: 566,428
Trainable params: 566,428
Non-trainable params: 0
_________________________________________________________________

<Mon Oct 17 16:00:18 2022>	[Info]:	The model compiled sucessfuly.
<Mon Oct 17 16:00:19 2022>	[Info]:	Scheme drawn sucessfuly.
<Mon Oct 17 16:00:20 2022>	[Info]:	Training the current model.
<Mon Oct 17 16:00:30 2022>	[Info]:	Compiling the current model:
		Input:8
		Conv2D [64, 2]
		Flatten 
		Dense [180]
		Output:8

<Mon Oct 17 16:00:30 2022>	[Info]:	Model summary:
Model: "model"
_________________________________________________________________
 Layer (type)                Output Shape              Param #   
=================================================================
 input_1 (InputLayer)        [(None, 8, 8, 1)]         0         
                                                                 
 conv2d (Conv2D)             (None, 7, 7, 64)          320       
                                                                 
 flatten (Flatten)           (None, 3136)              0         
                                                                 
 dense (Dense)               (None, 180)               564660    
                                                                 
 output (Dense)              (None, 8)                 1448      
                                                                 
=================================================================
Total params: 566,428
Trainable params: 566,428
Non-trainable params: 0
_________________________________________________________________
Model: "model_1"
_________________________________________________________________
 Layer (type)                Output Shape              Param #   
=================================================================
 input_2 (InputLayer)        [(None, 8, 8, 1)]         0         
                                                                 
 conv2d_1 (Conv2D)           (None, 7, 7, 64)          320       
                                                                 
 flatten_1 (Flatten)         (None, 3136)              0         
                                                                 
 dense_1 (Dense)             (None, 180)               564660    
                                                                 
 output (Dense)              (None, 8)                 1448      
                                                                 
=================================================================
Total params: 566,428
Trainable params: 566,428
Non-trainable params: 0
_________________________________________________________________
Model: "model_2"
_________________________________________________________________
 Layer (type)                Output Shape              Param #   
=================================================================
 input_3 (InputLayer)        [(None, 8, 8, 1)]         0         
                                                                 
 conv2d_2 (Conv2D)           (None, 7, 7, 64)          320       
                                                                 
 flatten_2 (Flatten)         (None, 3136)              0         
                                                                 
 dense_2 (Dense)             (None, 180)               564660    
                                                                 
 output (Dense)              (None, 8)                 1448      
                                                                 
=================================================================
Total params: 566,428
Trainable params: 566,428
Non-trainable params: 0
_________________________________________________________________
Model: "model_3"
_________________________________________________________________
 Layer (type)                Output Shape              Param #   
=================================================================
 input_4 (InputLayer)        [(None, 8, 8, 1)]         0         
                                                                 
 conv2d_3 (Conv2D)           (None, 7, 7, 64)          320       
                                                                 
 flatten_3 (Flatten)         (None, 3136)              0         
                                                                 
 dense_3 (Dense)             (None, 180)               564660    
                                                                 
 output (Dense)              (None, 8)                 1448      
                                                                 
=================================================================
Total params: 566,428
Trainable params: 566,428
Non-trainable params: 0
_________________________________________________________________
Model: "model_4"
_________________________________________________________________
 Layer (type)                Output Shape              Param #   
=================================================================
 input_5 (InputLayer)        [(None, 8, 8, 1)]         0         
                                                                 
 conv2d_4 (Conv2D)           (None, 7, 7, 64)          320       
                                                                 
 flatten_4 (Flatten)         (None, 3136)              0         
                                                                 
 dense_4 (Dense)             (None, 180)               564660    
                                                                 
 output (Dense)              (None, 8)                 1448      
                                                                 
=================================================================
Total params: 566,428
Trainable params: 566,428
Non-trainable params: 0
_________________________________________________________________

<Mon Oct 17 16:00:30 2022>	[Info]:	The model compiled sucessfuly.
<Mon Oct 17 16:00:30 2022>	[Info]:	Scheme drawn sucessfuly.
…
		Dense [128]
<Tue Oct 18 16:32:12 2022>	[Info]:	Compiling the current model:
		Input:8
		Flatten 
		Dense [128]
		Dense [64]
		Dense [32]
		Dense [64]
		Dense [128]
		Output:8

<Tue Oct 18 16:32:12 2022>	[Info]:	Model summary:
Model: "model"
_________________________________________________________________
 Layer (type)                Output Shape              Param #   
=================================================================
 input_2 (InputLayer)        [(None, 8, 8, 1)]         0         
                                                                 
 flatten_1 (Flatten)         (None, 64)                0         
                                                                 
 dense_1 (Dense)             (None, 128)               8320      
                                                                 
 output (Dense)              (None, 8)                 1032      
                                                                 
=================================================================
Total params: 9,352
Trainable params: 9,352
Non-trainable params: 0
_________________________________________________________________
Model: "model_1"
_________________________________________________________________
 Layer (type)                Output Shape              Param #   
=================================================================
 input_3 (InputLayer)        [(None, 8, 8, 1)]         0         
                                                                 
 flatten_2 (Flatten)         (None, 64)                0         
                                                                 
 dense_2 (Dense)             (None, 128)               8320      
                                                                 
 dense_3 (Dense)             (None, 64)                8256      
                                                                 
 dense_4 (Dense)             (None, 32)                2080      
                                                                 
 dense_5 (Dense)             (None, 64)                2112      
                                                                 
 dense_6 (Dense)             (None, 128)               8320      
                                                                 
 output (Dense)              (None, 8)                 1032      
                                                                 
=================================================================
Total params: 30,120
Trainable params: 30,120
Non-trainable params: 0
_________________________________________________________________

<Tue Oct 18 16:32:12 2022>	[Info]:	The model compiled sucessfuly.
<Tue Oct 18 16:32:12 2022>	[Info]:	Scheme drawn sucessfuly.
…
<Tue Oct 18 16:41:21 2022>	[Info]:	Device /device:GPU:0 set up for Train.
<Tue Oct 18 16:41:22 2022>	[Info]:	Compiling the current model:
		Input:8
		Flatten 
		Dense [128]
		Dense [64]
		Dense [32]
		Dense [64]
		Dense [128]
		Output:8

<Tue Oct 18 16:41:22 2022>	[Info]:	Model summary:
Model: "model"
_________________________________________________________________
 Layer (type)                Output Shape              Param #   
=================================================================
 input_1 (InputLayer)        [(None, 8, 8, 1)]         0         
                                                                 
 flatten (Flatten)           (None, 64)                0         
                                                                 
 dense (Dense)               (None, 128)               8320      
                                                                 
 dense_1 (Dense)             (None, 64)                8256      
                                                                 
 dense_2 (Dense)             (None, 32)                2080      
                                                                 
 dense_3 (Dense)             (None, 64)                2112      
                                                                 
 dense_4 (Dense)             (None, 128)               8320      
                                                                 
 output (Dense)              (None, 8)                 1032      
                                                                 
=================================================================
Total params: 30,120
Trainable params: 30,120
Non-trainable params: 0
_________________________________________________________________

<Tue Oct 18 16:41:22 2022>	[Info]:	The model compiled sucessfuly.
<Tue Oct 18 16:41:22 2022>	[Info]:	Scheme drawn sucessfuly.
…
<Tue Oct 18 17:46:33 2022>	[Info]:	Adding new layer to the model:
		Dense [128]
<Tue Oct 18 17:46:34 2022>	[Info]:	Compiling the current model:
		Input:8
		Conv2D [64, 2]
		Flatten 
		Dense [128]
		Output:8

<Tue Oct 18 17:46:35 2022>	[Info]:	Model summary:
Model: "model"
_________________________________________________________________
 Layer (type)                Output Shape              Param #   
=================================================================
 input_2 (InputLayer)        [(None, 8, 8, 1)]         0         
                                                                 
 flatten (Flatten)           (None, 64)                0         
                                                                 
 dense (Dense)               (None, 128)               8320      
                                                                 
 dense_1 (Dense)             (None, 64)                8256      
                                                                 
 dense_2 (Dense)             (None, 32)                2080      
                                                                 
 dense_3 (Dense)             (None, 64)                2112      
                                                                 
 dense_4 (Dense)             (None, 128)               8320      
                                                                 
 output (Dense)              (None, 8)                 1032      
                                                                 
=================================================================
Total params: 30,120
Trainable params: 30,120
Non-trainable params: 0
_________________________________________________________________
Model: "model_1"
_________________________________________________________________
 Layer (type)                Output Shape              Param #   
=================================================================
 input_3 (InputLayer)        [(None, 8, 8, 1)]         0         
                                                                 
 conv2d (Conv2D)             (None, 7, 7, 64)          320       
                                                                 
 flatten_1 (Flatten)         (None, 3136)              0         
                                                                 
 dense_5 (Dense)             (None, 128)               401536    
                                                                 
 output (Dense)              (None, 8)                 1032      
                                                                 
=================================================================
Total params: 402,888
Trainable params: 402,888
Non-trainable params: 0
_________________________________________________________________

<Tue Oct 18 17:46:35 2022>	[Info]:	The model compiled sucessfuly.
<Tue Oct 18 17:46:35 2022>	[Info]:	Scheme drawn sucessfuly.
…
<Tue Oct 18 17:54:53 2022>	[Info]:	Removed ('autoencoder_2n ', ('', [])) from the layer list.
<Tue Oct 18 17:54:56 2022>	[Info]:	Compiling the current model:
		Input:8
		Flatten 
		Dense [128]
		Dense [64]
		Dense [128]
		Output:8

<Tue Oct 18 17:54:56 2022>	[Info]:	Model summary:
Model: "model"
_________________________________________________________________
 Layer (type)                Output Shape              Param #   
=================================================================
 input_2 (InputLayer)        [(None, 8, 8, 1)]         0         
                                                                 
 flatten (Flatten)           (None, 64)                0         
                                                                 
 dense (Dense)               (None, 128)               8320      
                                                                 
 dense_1 (Dense)             (None, 64)                8256      
                                                                 
 dense_2 (Dense)             (None, 128)               8320      
                                                                 
 output (Dense)              (None, 8)                 1032      
                                                                 
=================================================================
Total params: 25,928
Trainable params: 25,928
Non-trainable params: 0
_________________________________________________________________

<Tue Oct 18 17:54:56 2022>	[Info]:	The model compiled sucessfuly.
<Tue Oct 18 17:54:56 2022>	[Info]:	Scheme drawn sucessfuly.
…
<Tue Oct 18 18:13:12 2022>	[Info]:	Adding new layer to the model:
		Dense [180]
<Tue Oct 18 18:13:17 2022>	[Info]:	Compiling the current model:
		Input:8
		Flatten 
		Dense [180]
		Dense [180]
		Dense [180]
		Output:8

<Tue Oct 18 18:13:17 2022>	[Info]:	Model summary:
Model: "Dense"
_________________________________________________________________
 Layer (type)                Output Shape              Param #   
=================================================================
 input_1 (InputLayer)        [(None, 8, 8, 1)]         0         
                                                                 
 flatten (Flatten)           (None, 64)                0         
                                                                 
 dense (Dense)               (None, 180)               11700     
                                                                 
 output (Dense)              (None, 8)                 1448      
                                                                 
=================================================================
Total params: 13,148
Trainable params: 13,148
Non-trainable params: 0
_________________________________________________________________
Model: "Dense"
_________________________________________________________________
 Layer (type)                Output Shape              Param #   
=================================================================
 input_2 (InputLayer)        [(None, 8, 8, 1)]         0         
                                                                 
 flatten_1 (Flatten)         (None, 64)                0         
                                                                 
 dense_1 (Dense)             (None, 180)               11700     
                                                                 
 dense_2 (Dense)             (None, 180)               32580     
                                                                 
 dense_3 (Dense)             (None, 180)               32580     
                                                                 
 output (Dense)              (None, 8)                 1448      
                                                                 
=================================================================
Total params: 78,308
Trainable params: 78,308
Non-trainable params: 0
_________________________________________________________________

<Tue Oct 18 18:13:17 2022>	[Info]:	The model compiled sucessfuly.
<Tue Oct 18 18:13:17 2022>	[Info]:	Scheme drawn sucessfuly.
…
<Tue Oct 18 18:18:12 2022>	[Info]:	Compiling the current model:
		Input:8
		Conv2D [64, 2]
		Dense [128]
		Dense [64]
		Dense [32]
		Dense [64]
		Dense [128]
		Flatten 
		Output:8

<Tue Oct 18 18:18:12 2022>	[Info]:	Model summary:
Model: "current_model_0"
_________________________________________________________________
 Layer (type)                Output Shape              Param #   
=================================================================
 input_1 (InputLayer)        [(None, 8, 8, 1)]         0         
                                                                 
 flatten (Flatten)           (None, 64)                0         
                                                                 
 dense (Dense)               (None, 128)               8320      
                                                                 
 dense_1 (Dense)             (None, 64)                8256      
                                                                 
 dense_2 (Dense)             (None, 32)                2080      
                                                                 
 dense_3 (Dense)             (None, 64)                2112      
                                                                 
 dense_4 (Dense)             (None, 128)               8320      
                                                                 
 output (Dense)              (None, 8)                 1032      
                                                                 
=================================================================
Total params: 30,120
Trainable params: 30,120
Non-trainable params: 0
_________________________________________________________________
Model: "current_model_1"
_________________________________________________________________
 Layer (type)                Output Shape              Param #   
=================================================================
 input_2 (InputLayer)        [(None, 8, 8, 1)]         0         
                                                                 
 conv2d (Conv2D)             (None, 7, 7, 64)          320       
                                                                 
 dense_5 (Dense)             (None, 7, 7, 128)         8320      
                                                                 
 dense_6 (Dense)             (None, 7, 7, 64)          8256      
                                                                 
 dense_7 (Dense)             (None, 7, 7, 32)          2080      
                                                                 
 dense_8 (Dense)             (None, 7, 7, 64)          2112      
                                                                 
 dense_9 (Dense)             (None, 7, 7, 128)         8320      
                                                                 
 flatten_1 (Flatten)         (None, 6272)              0         
                                                                 
 output (Dense)              (None, 8)                 50184     
                                                                 
=================================================================
Total params: 79,592
Trainable params: 79,592
Non-trainable params: 0
_________________________________________________________________

<Tue Oct 18 18:18:12 2022>	[Info]:	The model compiled sucessfuly.
<Tue Oct 18 18:18:13 2022>	[Info]:	Scheme drawn sucessfuly.
…
<Tue Oct 18 18:19:33 2022>	[Info]:	Adding new layer to the model:
		Dense [180]
<Tue Oct 18 18:19:36 2022>	[Info]:	Compiling the current model:
		Input:8
		Conv2D [64, 2]
		Flatten 
		Dense [180]
		Output:8

<Tue Oct 18 18:19:36 2022>	[Info]:	Model summary:
Model: "current_model_0"
_________________________________________________________________
 Layer (type)                Output Shape              Param #   
=================================================================
 input_1 (InputLayer)        [(None, 8, 8, 1)]         0         
                                                                 
 flatten (Flatten)           (None, 64)                0         
                                                                 
 dense (Dense)               (None, 128)               8320      
                                                                 
 dense_1 (Dense)             (None, 64)                8256      
                                                                 
 dense_2 (Dense)             (None, 32)                2080      
                                                                 
 dense_3 (Dense)             (None, 64)                2112      
                                                                 
 dense_4 (Dense)             (None, 128)               8320      
                                                                 
 output (Dense)              (None, 8)                 1032      
                                                                 
=================================================================
Total params: 30,120
Trainable params: 30,120
Non-trainable params: 0
_________________________________________________________________
Model: "current_model_1"
_________________________________________________________________
 Layer (type)                Output Shape              Param #   
=================================================================
 input_2 (InputLayer)        [(None, 8, 8, 1)]         0         
                                                                 
 conv2d (Conv2D)             (None, 7, 7, 64)          320       
                                                                 
 dense_5 (Dense)             (None, 7, 7, 128)         8320      
                                                                 
 dense_6 (Dense)             (None, 7, 7, 64)          8256      
                                                                 
 dense_7 (Dense)             (None, 7, 7, 32)          2080      
                                                                 
 dense_8 (Dense)             (None, 7, 7, 64)          2112      
                                                                 
 dense_9 (Dense)             (None, 7, 7, 128)         8320      
                                                                 
 flatten_1 (Flatten)         (None, 6272)              0         
                                                                 
 output (Dense)              (None, 8)                 50184     
                                                                 
=================================================================
Total params: 79,592
Trainable params: 79,592
Non-trainable params: 0
_________________________________________________________________
Model: "current_model_2"
_________________________________________________________________
 Layer (type)                Output Shape              Param #   
=================================================================
 input_3 (InputLayer)        [(None, 8, 8, 1)]         0         
                                                                 
 conv2d_1 (Conv2D)           (None, 7, 7, 64)          320       
                                                                 
 flatten_2 (Flatten)         (None, 3136)              0         
                                                                 
 dense_10 (Dense)            (None, 180)               564660    
                                                                 
 output (Dense)              (None, 8)                 1448      
                                                                 
=================================================================
Total params: 566,428
Trainable params: 566,428
Non-trainable params: 0
_________________________________________________________________

<Tue Oct 18 18:19:36 2022>	[Info]:	The model compiled sucessfuly.
<Tue Oct 18 18:19:36 2022>	[Info]:	Scheme drawn sucessfuly.
<Tue Oct 18 18:19:37 2022>	[Info]:	Training the current model.
<Tue Oct 18 18:20:29 2022>	[Info]:	Training stopped.
<Tue Oct 18 18:20:44 2022>	[Info]:	Model exported to C:/Users/ialve/Desktop/cnet/db/model_lists/cdense.
<Tue Oct 18 18:20:53 2022>	[Info]:	Model summary:
Model: "current_model_0"
_________________________________________________________________
 Layer (type)                Output Shape              Param #   
=================================================================
 input_1 (InputLayer)        [(None, 8, 8, 1)]         0         
                                                                 
 flatten (Flatten)           (None, 64)                0         
                                                                 
 dense (Dense)               (None, 128)               8320      
                                                                 
 dense_1 (Dense)             (None, 64)                8256      
                                                                 
 dense_2 (Dense)             (None, 32)                2080      
                                                                 
 dense_3 (Dense)             (None, 64)                2112      
                                                                 
 dense_4 (Dense)             (None, 128)               8320      
                                                                 
 output (Dense)              (None, 8)                 1032      
                                                                 
=================================================================
Total params: 30,120
Trainable params: 30,120
Non-trainable params: 0
_________________________________________________________________
Model: "current_model_1"
_________________________________________________________________
 Layer (type)                Output Shape              Param #   
=================================================================
 input_2 (InputLayer)        [(None, 8, 8, 1)]         0         
                                                                 
 conv2d (Conv2D)             (None, 7, 7, 64)          320       
                                                                 
 dense_5 (Dense)             (None, 7, 7, 128)         8320      
                                                                 
 dense_6 (Dense)             (None, 7, 7, 64)          8256      
                                                                 
 dense_7 (Dense)             (None, 7, 7, 32)          2080      
                                                                 
 dense_8 (Dense)             (None, 7, 7, 64)          2112      
                                                                 
 dense_9 (Dense)             (None, 7, 7, 128)         8320      
                                                                 
 flatten_1 (Flatten)         (None, 6272)              0         
                                                                 
 output (Dense)              (None, 8)                 50184     
                                                                 
=================================================================
Total params: 79,592
Trainable params: 79,592
Non-trainable params: 0
_________________________________________________________________
Model: "current_model_2"
_________________________________________________________________
 Layer (type)                Output Shape              Param #   
=================================================================
 input_3 (InputLayer)        [(None, 8, 8, 1)]         0         
                                                                 
 conv2d_1 (Conv2D)           (None, 7, 7, 64)          320       
                                                                 
 flatten_2 (Flatten)         (None, 3136)              0         
                                                                 
 dense_10 (Dense)            (None, 180)               564660    
                                                                 
 output (Dense)              (None, 8)                 1448      
                                                                 
=================================================================
Total params: 566,428
Trainable params: 566,428
Non-trainable params: 0
_________________________________________________________________
Model: "current_model_2"
_________________________________________________________________
 Layer (type)                Output Shape              Param #   
=================================================================
 input_3 (InputLayer)        [(None, 8, 8, 1)]         0         
                                                                 
 conv2d_1 (Conv2D)           (None, 7, 7, 64)          320       
                                                                 
 flatten_2 (Flatten)         (None, 3136)              0         
                                                                 
 dense_10 (Dense)            (None, 180)               564660    
                                                                 
 output (Dense)              (None, 8)                 1448      
                                                                 
=================================================================
Total params: 566,428
Trainable params: 566,428
Non-trainable params: 0
_________________________________________________________________

<Tue Oct 18 18:20:53 2022>	[Info]:	Scheme drawn sucessfuly.
<Tue Oct 18 18:20:53 2022>	[Info]:	Imported model C:/Users/ialve/Desktop/cnet/db/model_lists/cdense.
…
<Tue Oct 18 18:30:45 2022>	[Info]:	Scheme drawn sucessfuly.
<Tue Oct 18 18:31:07 2022>	[Info]:	Model exported to C:/Users/ialve/Desktop/cnet/db/model_lists/autoencoder_2n_0.
<Tue Oct 18 18:33:29 2022>	[Info]:	Model summary:
Model: "model_0"
_________________________________________________________________
 Layer (type)                Output Shape              Param #   
=================================================================
 input_1 (InputLayer)        [(None, 8, 8, 1)]         0         
                                                                 
 flatten (Flatten)           (None, 64)                0         
                                                                 
 dense (Dense)               (None, 128)               8320      
                                                                 
 dense_1 (Dense)             (None, 64)                8256      
                                                                 
 dense_2 (Dense)             (None, 32)                2080      
                                                                 
 dense_3 (Dense)             (None, 64)                2112      
                                                                 
 dense_4 (Dense)             (None, 128)               8320      
                                                                 
 output (Dense)              (None, 8)                 1032      
                                                                 
=================================================================
Total params: 30,120
Trainable params: 30,120
Non-trainable params: 0
_________________________________________________________________
Model: "model_0"
_________________________________________________________________
 Layer (type)                Output Shape              Param #   
=================================================================
 input_1 (InputLayer)        [(None, 8, 8, 1)]         0         
                                                                 
 flatten (Flatten)           (None, 64)                0         
                                                                 
 dense (Dense)               (None, 128)               8320      
                                                                 
 dense_1 (Dense)             (None, 64)                8256      
                                                                 
 dense_2 (Dense)             (None, 32)                2080      
                                                                 
 dense_3 (Dense)             (None, 64)                2112      
                                                                 
 dense_4 (Dense)             (None, 128)               8320      
                                                                 
 output (Dense)              (None, 8)                 1032      
                                                                 
=================================================================
Total params: 30,120
Trainable params: 30,120
Non-trainable params: 0
_________________________________________________________________

<Tue Oct 18 18:33:30 2022>	[Info]:	Scheme drawn sucessfuly.
<Tue Oct 18 18:33:30 2022>	[Info]:	Imported model C:/Users/ialve/Desktop/cnet/db/model_lists/autoencoder_2n_0.
…
<Tue Oct 18 21:47:15 2022>	[Info]:	Current available devices:
	Device 0:	/device:CPU:0		Role: None
	Device 1:	/device:GPU:0		Role: None

<Tue Oct 18 21:47:22 2022>	[Info]:	Database 32k_32t_0w loaded.
<Tue Oct 18 21:47:30 2022>	[Info]:	Model summary:
Model: "model_0"
_________________________________________________________________
 Layer (type)                Output Shape              Param #   
=================================================================
 input_1 (InputLayer)        [(None, 8, 8, 1)]         0         
                                                                 
 flatten (Flatten)           (None, 64)                0         
                                                                 
 dense (Dense)               (None, 128)               8320      
                                                                 
 dense_1 (Dense)             (None, 64)                8256      
                                                                 
 dense_2 (Dense)             (None, 32)                2080      
                                                                 
 dense_3 (Dense)             (None, 64)                2112      
                                                                 
 dense_4 (Dense)             (None, 128)               8320      
                                                                 
 output (Dense)              (None, 8)                 1032      
                                                                 
=================================================================
Total params: 30,120
Trainable params: 30,120
Non-trainable params: 0
_________________________________________________________________
Model: "model_0"
_________________________________________________________________
 Layer (type)                Output Shape              Param #   
=================================================================
 input_1 (InputLayer)        [(None, 8, 8, 1)]         0         
                                                                 
 flatten (Flatten)           (None, 64)                0         
                                                                 
 dense (Dense)               (None, 128)               8320      
                                                                 
 dense_1 (Dense)             (None, 64)                8256      
                                                                 
 dense_2 (Dense)             (None, 32)                2080      
                                                                 
 dense_3 (Dense)             (None, 64)                2112      
                                                                 
 dense_4 (Dense)             (None, 128)               8320      
                                                                 
 output (Dense)              (None, 8)                 1032      
                                                                 
=================================================================
Total params: 30,120
Trainable params: 30,120
Non-trainable params: 0
_________________________________________________________________
Model: "model_0"
_________________________________________________________________
 Layer (type)                Output Shape              Param #   
=================================================================
 input_1 (InputLayer)        [(None, 8, 8, 1)]         0         
                                                                 
 flatten (Flatten)           (None, 64)                0         
                                                                 
 dense (Dense)               (None, 128)               8320      
                                                                 
 dense_1 (Dense)             (None, 64)                8256      
                                                                 
 dense_2 (Dense)             (None, 32)                2080      
                                                                 
 dense_3 (Dense)             (None, 64)                2112      
                                                                 
 dense_4 (Dense)             (None, 128)               8320      
                                                                 
 output (Dense)              (None, 8)                 1032      
                                                                 
=================================================================
Total params: 30,120
Trainable params: 30,120
Non-trainable params: 0
_________________________________________________________________

<Tue Oct 18 21:47:30 2022>	[Info]:	Scheme drawn sucessfuly.
<Tue Oct 18 21:47:30 2022>	[Info]:	Imported model C:/Users/fract/Desktop/cnet/db/model_lists/autoencoder_sigmoid.
<Tue Oct 18 21:47:40 2022>	[Info]:	Device /device:GPU:0 set up for Train.
<Tue Oct 18 21:47:44 2022>	[Info]:	Compiling the current model:
		Input:8
		Flatten 
		Dense [128]
		Dense [64]
		Dense [32]
		Dense [64]
		Dense [128]
		Output:8

<Tue Oct 18 21:47:45 2022>	[Info]:	Model summary:
Model: "model_0"
_________________________________________________________________
 Layer (type)                Output Shape              Param #   
=================================================================
 input_1 (InputLayer)        [(None, 8, 8, 1)]         0         
                                                                 
 flatten (Flatten)           (None, 64)                0         
                                                                 
 dense (Dense)               (None, 128)               8320      
                                                                 
 dense_1 (Dense)             (None, 64)                8256      
                                                                 
 dense_2 (Dense)             (None, 32)                2080      
                                                                 
 dense_3 (Dense)             (None, 64)                2112      
                                                                 
 dense_4 (Dense)             (None, 128)               8320      
                                                                 
 output (Dense)              (None, 8)                 1032      
                                                                 
=================================================================
Total params: 30,120
Trainable params: 30,120
Non-trainable params: 0
_________________________________________________________________
Model: "model_0"
_________________________________________________________________
 Layer (type)                Output Shape              Param #   
=================================================================
 input_1 (InputLayer)        [(None, 8, 8, 1)]         0         
                                                                 
 flatten (Flatten)           (None, 64)                0         
                                                                 
 dense (Dense)               (None, 128)               8320      
                                                                 
 dense_1 (Dense)             (None, 64)                8256      
                                                                 
 dense_2 (Dense)             (None, 32)                2080      
                                                                 
 dense_3 (Dense)             (None, 64)                2112      
                                                                 
 dense_4 (Dense)             (None, 128)               8320      
                                                                 
 output (Dense)              (None, 8)                 1032      
                                                                 
=================================================================
Total params: 30,120
Trainable params: 30,120
Non-trainable params: 0
_________________________________________________________________
Model: "model_0"
_________________________________________________________________
 Layer (type)                Output Shape              Param #   
=================================================================
 input_1 (InputLayer)        [(None, 8, 8, 1)]         0         
                                                                 
 flatten (Flatten)           (None, 64)                0         
                                                                 
 dense (Dense)               (None, 128)               8320      
                                                                 
 dense_1 (Dense)             (None, 64)                8256      
                                                                 
 dense_2 (Dense)             (None, 32)                2080      
                                                                 
 dense_3 (Dense)             (None, 64)                2112      
                                                                 
 dense_4 (Dense)             (None, 128)               8320      
                                                                 
 output (Dense)              (None, 8)                 1032      
                                                                 
=================================================================
Total params: 30,120
Trainable params: 30,120
Non-trainable params: 0
_________________________________________________________________
Model: "model_0"
_________________________________________________________________
 Layer (type)                Output Shape              Param #   
=================================================================
 input_1 (InputLayer)        [(None, 8, 8, 1)]         0         
                                                                 
 flatten (Flatten)           (None, 64)                0         
                                                                 
 dense (Dense)               (None, 128)               8320      
                                                                 
 dense_1 (Dense)             (None, 64)                8256      
                                                                 
 dense_2 (Dense)             (None, 32)                2080      
                                                                 
 dense_3 (Dense)             (None, 64)                2112      
                                                                 
 dense_4 (Dense)             (None, 128)               8320      
                                                                 
 output (Dense)              (None, 8)                 1032      
                                                                 
=================================================================
Total params: 30,120
Trainable params: 30,120
Non-trainable params: 0
_________________________________________________________________

<Tue Oct 18 21:47:45 2022>	[Info]:	The model compiled sucessfuly.
<Tue Oct 18 21:47:45 2022>	[Info]:	Scheme drawn sucessfuly.
…
		Dense [128]
<Wed Oct 19 14:57:54 2022>	[Info]:	Compiling the current model:
		Input:16
		Flatten 
		Dense [128]
		Dense [64]
		Dense [32]
		Dense [64]
		Dense [128]
		Output:16

<Wed Oct 19 14:57:55 2022>	[Info]:	Model summary:
Model: "model_0"
_________________________________________________________________
 Layer (type)                Output Shape              Param #   
=================================================================
 input_1 (InputLayer)        [(None, 8, 8, 1)]         0         
                                                                 
 flatten (Flatten)           (None, 64)                0         
                                                                 
 dense (Dense)               (None, 128)               8320      
                                                                 
 dense_1 (Dense)             (None, 64)                8256      
                                                                 
 dense_2 (Dense)             (None, 32)                2080      
                                                                 
 dense_3 (Dense)             (None, 64)                2112      
                                                                 
 dense_4 (Dense)             (None, 128)               8320      
                                                                 
 output (Dense)              (None, 8)                 1032      
                                                                 
=================================================================
Total params: 30,120
Trainable params: 30,120
Non-trainable params: 0
_________________________________________________________________
Model: "model_0"
_________________________________________________________________
 Layer (type)                Output Shape              Param #   
=================================================================
 input_1 (InputLayer)        [(None, 8, 8, 1)]         0         
                                                                 
 flatten (Flatten)           (None, 64)                0         
                                                                 
 dense (Dense)               (None, 128)               8320      
                                                                 
 dense_1 (Dense)             (None, 64)                8256      
                                                                 
 dense_2 (Dense)             (None, 32)                2080      
                                                                 
 dense_3 (Dense)             (None, 64)                2112      
                                                                 
 dense_4 (Dense)             (None, 128)               8320      
                                                                 
 output (Dense)              (None, 8)                 1032      
                                                                 
=================================================================
Total params: 30,120
Trainable params: 30,120
Non-trainable params: 0
_________________________________________________________________
Model: "model_0"
_________________________________________________________________
 Layer (type)                Output Shape              Param #   
=================================================================
 input_1 (InputLayer)        [(None, 8, 8, 1)]         0         
                                                                 
 flatten (Flatten)           (None, 64)                0         
                                                                 
 dense (Dense)               (None, 128)               8320      
                                                                 
 dense_1 (Dense)             (None, 64)                8256      
                                                                 
 dense_2 (Dense)             (None, 32)                2080      
                                                                 
 dense_3 (Dense)             (None, 64)                2112      
                                                                 
 dense_4 (Dense)             (None, 128)               8320      
                                                                 
 output (Dense)              (None, 8)                 1032      
                                                                 
=================================================================
Total params: 30,120
Trainable params: 30,120
Non-trainable params: 0
_________________________________________________________________
Model: "model_0"
_________________________________________________________________
 Layer (type)                Output Shape              Param #   
=================================================================
 input_1 (InputLayer)        [(None, 16, 16, 1)]       0         
                                                                 
 flatten (Flatten)           (None, 256)               0         
                                                                 
 dense (Dense)               (None, 128)               32896     
                                                                 
 dense_1 (Dense)             (None, 64)                8256      
                                                                 
 dense_2 (Dense)             (None, 32)                2080      
                                                                 
 dense_3 (Dense)             (None, 64)                2112      
                                                                 
 dense_4 (Dense)             (None, 128)               8320      
                                                                 
 output (Dense)              (None, 16)                2064      
                                                                 
=================================================================
Total params: 55,728
Trainable params: 55,728
Non-trainable params: 0
_________________________________________________________________

<Wed Oct 19 14:57:55 2022>	[Info]:	The model compiled sucessfuly.
<Wed Oct 19 14:57:55 2022>	[Info]:	Scheme drawn sucessfuly.
…
<Wed Oct 19 16:53:46 2022>	[Info]:	Database 32k_8t_04w loaded.
<Wed Oct 19 16:53:51 2022>	[Info]:	Compiling the current model:
		Input:8
		Flatten 
		Dense [128]
		Dense [64]
		Dense [32]
		Dense [64]
		Dense [128]
		Output:8

<Wed Oct 19 16:53:52 2022>	[Info]:	Model summary:
Model: "model_0"
_________________________________________________________________
 Layer (type)                Output Shape              Param #   
=================================================================
 input_1 (InputLayer)        [(None, 8, 8, 1)]         0         
                                                                 
 flatten (Flatten)           (None, 64)                0         
                                                                 
 dense (Dense)               (None, 128)               8320      
                                                                 
 dense_1 (Dense)             (None, 64)                8256      
                                                                 
 dense_2 (Dense)             (None, 32)                2080      
                                                                 
 dense_3 (Dense)             (None, 64)                2112      
                                                                 
 dense_4 (Dense)             (None, 128)               8320      
                                                                 
 output (Dense)              (None, 8)                 1032      
                                                                 
=================================================================
Total params: 30,120
Trainable params: 30,120
Non-trainable params: 0
_________________________________________________________________
Model: "model_1"
_________________________________________________________________
 Layer (type)                Output Shape              Param #   
=================================================================
 input_2 (InputLayer)        [(None, 8, 8, 1)]         0         
                                                                 
 flatten_1 (Flatten)         (None, 64)                0         
                                                                 
 dense_5 (Dense)             (None, 128)               8320      
                                                                 
 dense_6 (Dense)             (None, 64)                8256      
                                                                 
 dense_7 (Dense)             (None, 32)                2080      
                                                                 
 dense_8 (Dense)             (None, 64)                2112      
                                                                 
 dense_9 (Dense)             (None, 128)               8320      
                                                                 
 output (Dense)              (None, 8)                 1032      
                                                                 
=================================================================
Total params: 30,120
Trainable params: 30,120
Non-trainable params: 0
_________________________________________________________________
Model: "model_2"
_________________________________________________________________
 Layer (type)                Output Shape              Param #   
=================================================================
 input_3 (InputLayer)        [(None, 8, 8, 1)]         0         
                                                                 
 flatten_2 (Flatten)         (None, 64)                0         
                                                                 
 dense_10 (Dense)            (None, 128)               8320      
                                                                 
 dense_11 (Dense)            (None, 64)                8256      
                                                                 
 dense_12 (Dense)            (None, 32)                2080      
                                                                 
 dense_13 (Dense)            (None, 64)                2112      
                                                                 
 dense_14 (Dense)            (None, 128)               8320      
                                                                 
 output (Dense)              (None, 8)                 1032      
                                                                 
=================================================================
Total params: 30,120
Trainable params: 30,120
Non-trainable params: 0
_________________________________________________________________
Model: "model_3"
_________________________________________________________________
 Layer (type)                Output Shape              Param #   
=================================================================
 input_4 (InputLayer)        [(None, 8, 8, 1)]         0         
                                                                 
 flatten_3 (Flatten)         (None, 64)                0         
                                                                 
 dense_15 (Dense)            (None, 128)               8320      
                                                                 
 dense_16 (Dense)            (None, 64)                8256      
                                                                 
 dense_17 (Dense)            (None, 32)                2080      
                                                                 
 dense_18 (Dense)            (None, 64)                2112      
                                                                 
 dense_19 (Dense)            (None, 128)               8320      
                                                                 
 output (Dense)              (None, 8)                 1032      
                                                                 
=================================================================
Total params: 30,120
Trainable params: 30,120
Non-trainable params: 0
_________________________________________________________________
Model: "model_4"
_________________________________________________________________
 Layer (type)                Output Shape              Param #   
=================================================================
 input_5 (InputLayer)        [(None, 8, 8, 1)]         0         
                                                                 
 flatten_4 (Flatten)         (None, 64)                0         
                                                                 
 dense_20 (Dense)            (None, 128)               8320      
                                                                 
 dense_21 (Dense)            (None, 64)                8256      
                                                                 
 dense_22 (Dense)            (None, 32)                2080      
                                                                 
 dense_23 (Dense)            (None, 64)                2112      
                                                                 
 dense_24 (Dense)            (None, 128)               8320      
                                                                 
 output (Dense)              (None, 8)                 1032      
                                                                 
=================================================================
Total params: 30,120
Trainable params: 30,120
Non-trainable params: 0
_________________________________________________________________

<Wed Oct 19 16:53:52 2022>	[Info]:	The model compiled sucessfuly.
<Wed Oct 19 16:53:52 2022>	[Info]:	Scheme drawn sucessfuly.
…
<Wed Oct 19 16:57:27 2022>	[Info]:	Database 32k_8t_05w loaded.
<Wed Oct 19 16:57:29 2022>	[Info]:	Compiling the current model:
		Input:8
		Flatten 
		Dense [128]
		Dense [64]
		Dense [32]
		Dense [64]
		Dense [128]
		Output:8

<Wed Oct 19 16:57:29 2022>	[Info]:	Model summary:
Model: "model_0"
_________________________________________________________________
 Layer (type)                Output Shape              Param #   
=================================================================
 input_1 (InputLayer)        [(None, 8, 8, 1)]         0         
                                                                 
 flatten (Flatten)           (None, 64)                0         
                                                                 
 dense (Dense)               (None, 128)               8320      
                                                                 
 dense_1 (Dense)             (None, 64)                8256      
                                                                 
 dense_2 (Dense)             (None, 32)                2080      
                                                                 
 dense_3 (Dense)             (None, 64)                2112      
                                                                 
 dense_4 (Dense)             (None, 128)               8320      
                                                                 
 output (Dense)              (None, 8)                 1032      
                                                                 
=================================================================
Total params: 30,120
Trainable params: 30,120
Non-trainable params: 0
_________________________________________________________________
Model: "model_1"
_________________________________________________________________
 Layer (type)                Output Shape              Param #   
=================================================================
 input_2 (InputLayer)        [(None, 8, 8, 1)]         0         
                                                                 
 flatten_1 (Flatten)         (None, 64)                0         
                                                                 
 dense_5 (Dense)             (None, 128)               8320      
                                                                 
 dense_6 (Dense)             (None, 64)                8256      
                                                                 
 dense_7 (Dense)             (None, 32)                2080      
                                                                 
 dense_8 (Dense)             (None, 64)                2112      
                                                                 
 dense_9 (Dense)             (None, 128)               8320      
                                                                 
 output (Dense)              (None, 8)                 1032      
                                                                 
=================================================================
Total params: 30,120
Trainable params: 30,120
Non-trainable params: 0
_________________________________________________________________
Model: "model_2"
_________________________________________________________________
 Layer (type)                Output Shape              Param #   
=================================================================
 input_3 (InputLayer)        [(None, 8, 8, 1)]         0         
                                                                 
 flatten_2 (Flatten)         (None, 64)                0         
                                                                 
 dense_10 (Dense)            (None, 128)               8320      
                                                                 
 dense_11 (Dense)            (None, 64)                8256      
                                                                 
 dense_12 (Dense)            (None, 32)                2080      
                                                                 
 dense_13 (Dense)            (None, 64)                2112      
                                                                 
 dense_14 (Dense)            (None, 128)               8320      
                                                                 
 output (Dense)              (None, 8)                 1032      
                                                                 
=================================================================
Total params: 30,120
Trainable params: 30,120
Non-trainable params: 0
_________________________________________________________________
Model: "model_3"
_________________________________________________________________
 Layer (type)                Output Shape              Param #   
=================================================================
 input_4 (InputLayer)        [(None, 8, 8, 1)]         0         
                                                                 
 flatten_3 (Flatten)         (None, 64)                0         
                                                                 
 dense_15 (Dense)            (None, 128)               8320      
                                                                 
 dense_16 (Dense)            (None, 64)                8256      
                                                                 
 dense_17 (Dense)            (None, 32)                2080      
                                                                 
 dense_18 (Dense)            (None, 64)                2112      
                                                                 
 dense_19 (Dense)            (None, 128)               8320      
                                                                 
 output (Dense)              (None, 8)                 1032      
                                                                 
=================================================================
Total params: 30,120
Trainable params: 30,120
Non-trainable params: 0
_________________________________________________________________
Model: "model_4"
_________________________________________________________________
 Layer (type)                Output Shape              Param #   
=================================================================
 input_5 (InputLayer)        [(None, 8, 8, 1)]         0         
                                                                 
 flatten_4 (Flatten)         (None, 64)                0         
                                                                 
 dense_20 (Dense)            (None, 128)               8320      
                                                                 
 dense_21 (Dense)            (None, 64)                8256      
                                                                 
 dense_22 (Dense)            (None, 32)                2080      
                                                                 
 dense_23 (Dense)            (None, 64)                2112      
                                                                 
 dense_24 (Dense)            (None, 128)               8320      
                                                                 
 output (Dense)              (None, 8)                 1032      
                                                                 
=================================================================
Total params: 30,120
Trainable params: 30,120
Non-trainable params: 0
_________________________________________________________________
Model: "model_5"
_________________________________________________________________
 Layer (type)                Output Shape              Param #   
=================================================================
 input_6 (InputLayer)        [(None, 8, 8, 1)]         0         
                                                                 
 flatten_5 (Flatten)         (None, 64)                0         
                                                                 
 dense_25 (Dense)            (None, 128)               8320      
                                                                 
 dense_26 (Dense)            (None, 64)                8256      
                                                                 
 dense_27 (Dense)            (None, 32)                2080      
                                                                 
 dense_28 (Dense)            (None, 64)                2112      
                                                                 
 dense_29 (Dense)            (None, 128)               8320      
                                                                 
 output (Dense)              (None, 8)                 1032      
                                                                 
=================================================================
Total params: 30,120
Trainable params: 30,120
Non-trainable params: 0
_________________________________________________________________

<Wed Oct 19 16:57:29 2022>	[Info]:	The model compiled sucessfuly.
<Wed Oct 19 16:57:30 2022>	[Info]:	Scheme drawn sucessfuly.
…
<Wed Oct 19 17:00:30 2022>	[Info]:	Database 32k_8t_06w loaded.
<Wed Oct 19 17:00:32 2022>	[Info]:	Compiling the current model:
		Input:8
		Flatten 
		Dense [128]
		Dense [64]
		Dense [32]
		Dense [64]
		Dense [128]
		Output:8

<Wed Oct 19 17:00:32 2022>	[Info]:	Model summary:
Model: "model_0"
_________________________________________________________________
 Layer (type)                Output Shape              Param #   
=================================================================
 input_1 (InputLayer)        [(None, 8, 8, 1)]         0         
                                                                 
 flatten (Flatten)           (None, 64)                0         
                                                                 
 dense (Dense)               (None, 128)               8320      
                                                                 
 dense_1 (Dense)             (None, 64)                8256      
                                                                 
 dense_2 (Dense)             (None, 32)                2080      
                                                                 
 dense_3 (Dense)             (None, 64)                2112      
                                                                 
 dense_4 (Dense)             (None, 128)               8320      
                                                                 
 output (Dense)              (None, 8)                 1032      
                                                                 
=================================================================
Total params: 30,120
Trainable params: 30,120
Non-trainable params: 0
_________________________________________________________________
Model: "model_1"
_________________________________________________________________
 Layer (type)                Output Shape              Param #   
=================================================================
 input_2 (InputLayer)        [(None, 8, 8, 1)]         0         
                                                                 
 flatten_1 (Flatten)         (None, 64)                0         
                                                                 
 dense_5 (Dense)             (None, 128)               8320      
                                                                 
 dense_6 (Dense)             (None, 64)                8256      
                                                                 
 dense_7 (Dense)             (None, 32)                2080      
                                                                 
 dense_8 (Dense)             (None, 64)                2112      
                                                                 
 dense_9 (Dense)             (None, 128)               8320      
                                                                 
 output (Dense)              (None, 8)                 1032      
                                                                 
=================================================================
Total params: 30,120
Trainable params: 30,120
Non-trainable params: 0
_________________________________________________________________
Model: "model_2"
_________________________________________________________________
 Layer (type)                Output Shape              Param #   
=================================================================
 input_3 (InputLayer)        [(None, 8, 8, 1)]         0         
                                                                 
 flatten_2 (Flatten)         (None, 64)                0         
                                                                 
 dense_10 (Dense)            (None, 128)               8320      
                                                                 
 dense_11 (Dense)            (None, 64)                8256      
                                                                 
 dense_12 (Dense)            (None, 32)                2080      
                                                                 
 dense_13 (Dense)            (None, 64)                2112      
                                                                 
 dense_14 (Dense)            (None, 128)               8320      
                                                                 
 output (Dense)              (None, 8)                 1032      
                                                                 
=================================================================
Total params: 30,120
Trainable params: 30,120
Non-trainable params: 0
_________________________________________________________________
Model: "model_3"
_________________________________________________________________
 Layer (type)                Output Shape              Param #   
=================================================================
 input_4 (InputLayer)        [(None, 8, 8, 1)]         0         
                                                                 
 flatten_3 (Flatten)         (None, 64)                0         
                                                                 
 dense_15 (Dense)            (None, 128)               8320      
                                                                 
 dense_16 (Dense)            (None, 64)                8256      
                                                                 
 dense_17 (Dense)            (None, 32)                2080      
                                                                 
 dense_18 (Dense)            (None, 64)                2112      
                                                                 
 dense_19 (Dense)            (None, 128)               8320      
                                                                 
 output (Dense)              (None, 8)                 1032      
                                                                 
=================================================================
Total params: 30,120
Trainable params: 30,120
Non-trainable params: 0
_________________________________________________________________
Model: "model_4"
_________________________________________________________________
 Layer (type)                Output Shape              Param #   
=================================================================
 input_5 (InputLayer)        [(None, 8, 8, 1)]         0         
                                                                 
 flatten_4 (Flatten)         (None, 64)                0         
                                                                 
 dense_20 (Dense)            (None, 128)               8320      
                                                                 
 dense_21 (Dense)            (None, 64)                8256      
                                                                 
 dense_22 (Dense)            (None, 32)                2080      
                                                                 
 dense_23 (Dense)            (None, 64)                2112      
                                                                 
 dense_24 (Dense)            (None, 128)               8320      
                                                                 
 output (Dense)              (None, 8)                 1032      
                                                                 
=================================================================
Total params: 30,120
Trainable params: 30,120
Non-trainable params: 0
_________________________________________________________________
Model: "model_5"
_________________________________________________________________
 Layer (type)                Output Shape              Param #   
=================================================================
 input_6 (InputLayer)        [(None, 8, 8, 1)]         0         
                                                                 
 flatten_5 (Flatten)         (None, 64)                0         
                                                                 
 dense_25 (Dense)            (None, 128)               8320      
                                                                 
 dense_26 (Dense)            (None, 64)                8256      
                                                                 
 dense_27 (Dense)            (None, 32)                2080      
                                                                 
 dense_28 (Dense)            (None, 64)                2112      
                                                                 
 dense_29 (Dense)            (None, 128)               8320      
                                                                 
 output (Dense)              (None, 8)                 1032      
                                                                 
=================================================================
Total params: 30,120
Trainable params: 30,120
Non-trainable params: 0
_________________________________________________________________
Model: "model_6"
_________________________________________________________________
 Layer (type)                Output Shape              Param #   
=================================================================
 input_7 (InputLayer)        [(None, 8, 8, 1)]         0         
                                                                 
 flatten_6 (Flatten)         (None, 64)                0         
                                                                 
 dense_30 (Dense)            (None, 128)               8320      
                                                                 
 dense_31 (Dense)            (None, 64)                8256      
                                                                 
 dense_32 (Dense)            (None, 32)                2080      
                                                                 
 dense_33 (Dense)            (None, 64)                2112      
                                                                 
 dense_34 (Dense)            (None, 128)               8320      
                                                                 
 output (Dense)              (None, 8)                 1032      
                                                                 
=================================================================
Total params: 30,120
Trainable params: 30,120
Non-trainable params: 0
_________________________________________________________________

<Wed Oct 19 17:00:32 2022>	[Info]:	The model compiled sucessfuly.
<Wed Oct 19 17:00:33 2022>	[Info]:	Scheme drawn sucessfuly.
…
		Dense [128]
<Wed Oct 19 17:20:48 2022>	[Info]:	Compiling the current model:
		Input:16
		Flatten 
		Dense [128]
		Dense [64]
		Dense [32]
		Dense [64]
		Dense [128]
		Output:16

<Wed Oct 19 17:20:49 2022>	[Info]:	Model summary:
Model: "model_0"
_________________________________________________________________
 Layer (type)                Output Shape              Param #   
=================================================================
 input_1 (InputLayer)        [(None, 8, 8, 1)]         0         
                                                                 
 flatten (Flatten)           (None, 64)                0         
                                                                 
 dense (Dense)               (None, 128)               8320      
                                                                 
 dense_1 (Dense)             (None, 64)                8256      
                                                                 
 dense_2 (Dense)             (None, 32)                2080      
                                                                 
 dense_3 (Dense)             (None, 64)                2112      
                                                                 
 dense_4 (Dense)             (None, 128)               8320      
                                                                 
 output (Dense)              (None, 8)                 1032      
                                                                 
=================================================================
Total params: 30,120
Trainable params: 30,120
Non-trainable params: 0
_________________________________________________________________
Model: "model_1"
_________________________________________________________________
 Layer (type)                Output Shape              Param #   
=================================================================
 input_2 (InputLayer)        [(None, 8, 8, 1)]         0         
                                                                 
 flatten_1 (Flatten)         (None, 64)                0         
                                                                 
 dense_5 (Dense)             (None, 128)               8320      
                                                                 
 dense_6 (Dense)             (None, 64)                8256      
                                                                 
 dense_7 (Dense)             (None, 32)                2080      
                                                                 
 dense_8 (Dense)             (None, 64)                2112      
                                                                 
 dense_9 (Dense)             (None, 128)               8320      
                                                                 
 output (Dense)              (None, 8)                 1032      
                                                                 
=================================================================
Total params: 30,120
Trainable params: 30,120
Non-trainable params: 0
_________________________________________________________________
Model: "model_2"
_________________________________________________________________
 Layer (type)                Output Shape              Param #   
=================================================================
 input_3 (InputLayer)        [(None, 8, 8, 1)]         0         
                                                                 
 flatten_2 (Flatten)         (None, 64)                0         
                                                                 
 dense_10 (Dense)            (None, 128)               8320      
                                                                 
 dense_11 (Dense)            (None, 64)                8256      
                                                                 
 dense_12 (Dense)            (None, 32)                2080      
                                                                 
 dense_13 (Dense)            (None, 64)                2112      
                                                                 
 dense_14 (Dense)            (None, 128)               8320      
                                                                 
 output (Dense)              (None, 8)                 1032      
                                                                 
=================================================================
Total params: 30,120
Trainable params: 30,120
Non-trainable params: 0
_________________________________________________________________
Model: "model_3"
_________________________________________________________________
 Layer (type)                Output Shape              Param #   
=================================================================
 input_4 (InputLayer)        [(None, 8, 8, 1)]         0         
                                                                 
 flatten_3 (Flatten)         (None, 64)                0         
                                                                 
 dense_15 (Dense)            (None, 128)               8320      
                                                                 
 dense_16 (Dense)            (None, 64)                8256      
                                                                 
 dense_17 (Dense)            (None, 32)                2080      
                                                                 
 dense_18 (Dense)            (None, 64)                2112      
                                                                 
 dense_19 (Dense)            (None, 128)               8320      
                                                                 
 output (Dense)              (None, 8)                 1032      
                                                                 
=================================================================
Total params: 30,120
Trainable params: 30,120
Non-trainable params: 0
_________________________________________________________________
Model: "model_4"
_________________________________________________________________
 Layer (type)                Output Shape              Param #   
=================================================================
 input_5 (InputLayer)        [(None, 8, 8, 1)]         0         
                                                                 
 flatten_4 (Flatten)         (None, 64)                0         
                                                                 
 dense_20 (Dense)            (None, 128)               8320      
                                                                 
 dense_21 (Dense)            (None, 64)                8256      
                                                                 
 dense_22 (Dense)            (None, 32)                2080      
                                                                 
 dense_23 (Dense)            (None, 64)                2112      
                                                                 
 dense_24 (Dense)            (None, 128)               8320      
                                                                 
 output (Dense)              (None, 8)                 1032      
                                                                 
=================================================================
Total params: 30,120
Trainable params: 30,120
Non-trainable params: 0
_________________________________________________________________
Model: "model_5"
_________________________________________________________________
 Layer (type)                Output Shape              Param #   
=================================================================
 input_6 (InputLayer)        [(None, 8, 8, 1)]         0         
                                                                 
 flatten_5 (Flatten)         (None, 64)                0         
                                                                 
 dense_25 (Dense)            (None, 128)               8320      
                                                                 
 dense_26 (Dense)            (None, 64)                8256      
                                                                 
 dense_27 (Dense)            (None, 32)                2080      
                                                                 
 dense_28 (Dense)            (None, 64)                2112      
                                                                 
 dense_29 (Dense)            (None, 128)               8320      
                                                                 
 output (Dense)              (None, 8)                 1032      
                                                                 
=================================================================
Total params: 30,120
Trainable params: 30,120
Non-trainable params: 0
_________________________________________________________________
Model: "model_6"
_________________________________________________________________
 Layer (type)                Output Shape              Param #   
=================================================================
 input_7 (InputLayer)        [(None, 8, 8, 1)]         0         
                                                                 
 flatten_6 (Flatten)         (None, 64)                0         
                                                                 
 dense_30 (Dense)            (None, 128)               8320      
                                                                 
 dense_31 (Dense)            (None, 64)                8256      
                                                                 
 dense_32 (Dense)            (None, 32)                2080      
                                                                 
 dense_33 (Dense)            (None, 64)                2112      
                                                                 
 dense_34 (Dense)            (None, 128)               8320      
                                                                 
 output (Dense)              (None, 8)                 1032      
                                                                 
=================================================================
Total params: 30,120
Trainable params: 30,120
Non-trainable params: 0
_________________________________________________________________
Model: "model_0"
_________________________________________________________________
 Layer (type)                Output Shape              Param #   
=================================================================
 input_8 (InputLayer)        [(None, 16, 16, 1)]       0         
                                                                 
 flatten_7 (Flatten)         (None, 256)               0         
                                                                 
 dense_35 (Dense)            (None, 128)               32896     
                                                                 
 dense_36 (Dense)            (None, 64)                8256      
                                                                 
 dense_37 (Dense)            (None, 32)                2080      
                                                                 
 dense_38 (Dense)            (None, 64)                2112      
                                                                 
 dense_39 (Dense)            (None, 128)               8320      
                                                                 
 output (Dense)              (None, 16)                2064      
                                                                 
=================================================================
Total params: 55,728
Trainable params: 55,728
Non-trainable params: 0
_________________________________________________________________

<Wed Oct 19 17:20:49 2022>	[Info]:	The model compiled sucessfuly.
<Wed Oct 19 17:20:49 2022>	[Info]:	Scheme drawn sucessfuly.
…
<Wed Oct 19 17:22:13 2022>	[Info]:	Database 32k_16t_01w loaded.
<Wed Oct 19 17:22:20 2022>	[Info]:	Compiling the current model:
		Input:16
		Flatten 
		Dense [128]
		Dense [64]
		Dense [32]
		Dense [64]
		Dense [128]
		Output:16

<Wed Oct 19 17:22:20 2022>	[Info]:	Model summary:
Model: "model_0"
_________________________________________________________________
 Layer (type)                Output Shape              Param #   
=================================================================
 input_1 (InputLayer)        [(None, 8, 8, 1)]         0         
                                                                 
 flatten (Flatten)           (None, 64)                0         
                                                                 
 dense (Dense)               (None, 128)               8320      
                                                                 
 dense_1 (Dense)             (None, 64)                8256      
                                                                 
 dense_2 (Dense)             (None, 32)                2080      
                                                                 
 dense_3 (Dense)             (None, 64)                2112      
                                                                 
 dense_4 (Dense)             (None, 128)               8320      
                                                                 
 output (Dense)              (None, 8)                 1032      
                                                                 
=================================================================
Total params: 30,120
Trainable params: 30,120
Non-trainable params: 0
_________________________________________________________________
Model: "model_1"
_________________________________________________________________
 Layer (type)                Output Shape              Param #   
=================================================================
 input_2 (InputLayer)        [(None, 8, 8, 1)]         0         
…
=================================================================
Total params: 7,383,904
Trainable params: 7,383,904
Non-trainable params: 0
_________________________________________________________________

<Fri Oct 21 19:09:08 2022>	[Info]:	The model compiled sucessfuly.
<Fri Oct 21 19:09:08 2022>	[Info]:	Scheme drawn sucessfuly.
…
<Thu Oct 27 20:19:38 2022>	[Info]:	The model compiled sucessfuly.
<Thu Oct 27 20:20:34 2022>	[Info]:	Compiling the current model:
		Input:32
		Conv2D [64, 3]
		Flatten 
		Dense [128]
		Output:32

<Thu Oct 27 20:20:37 2022>	[Info]:	Model summary:
Model: "model_0"
_________________________________________________________________
 Layer (type)                Output Shape              Param #   
=================================================================
 input_1 (InputLayer)        [(None, 32, 32, 1)]       0         
                                                                 
 conv2d (Conv2D)             (None, 30, 30, 64)        640       
                                                                 
 flatten (Flatten)           (None, 57600)             0         
                                                                 
 dense (Dense)               (None, 128)               7372928   
                                                                 
 output (Dense)              (None, 32)                4128      
                                                                 
=================================================================
Total params: 7,377,696
Trainable params: 7,377,696
Non-trainable params: 0
_________________________________________________________________
Model: "model_1"
_________________________________________________________________
 Layer (type)                Output Shape              Param #   
=================================================================
 input_2 (InputLayer)        [(None, 32, 32, 1)]       0         
                                                                 
 conv2d_1 (Conv2D)           (None, 30, 30, 64)        640       
                                                                 
 flatten_1 (Flatten)         (None, 57600)             0         
                                                                 
 dense_1 (Dense)             (None, 128)               7372928   
                                                                 
 output (Dense)              (None, 32)                4128      
                                                                 
=================================================================
Total params: 7,377,696
Trainable params: 7,377,696
Non-trainable params: 0
_________________________________________________________________

<Thu Oct 27 20:20:42 2022>	[Info]:	The model compiled sucessfuly.[Thu Oct 27 20:23:57 2022]		Welcome to CORNET!
<Thu Oct 27 20:23:57 2022>	[Info]:	Current available devices:
…
<Thu Oct 27 20:40:55 2022>	[Info]:	Device /device:GPU:0 set up for Train.
<Thu Oct 27 20:40:57 2022>	[Info]:	Compiling the current model:
		Input:32
		Conv2D [32, 2]
		Flatten 
		Dense [128]
		Dense [64]
		Output:32

<Thu Oct 27 20:40:58 2022>	[Info]:	Model summary:
Model: "model_1"
_________________________________________________________________
 Layer (type)                Output Shape              Param #   
=================================================================
 input_1 (InputLayer)        [(None, 32, 32, 1)]       0         
                                                                 
 conv2d (Conv2D)             (None, 31, 31, 32)        160       
                                                                 
 flatten (Flatten)           (None, 30752)             0         
                                                                 
 dense (Dense)               (None, 128)               3936384   
                                                                 
 dense_1 (Dense)             (None, 64)                8256      
                                                                 
 output (Dense)              (None, 32)                2080      
                                                                 
=================================================================
Total params: 3,946,880
Trainable params: 3,946,880
Non-trainable params: 0
_________________________________________________________________

<Thu Oct 27 20:40:58 2022>	[Info]:	The model compiled sucessfuly.
<Thu Oct 27 20:40:58 2022>	[Info]:	Scheme drawn sucessfuly.
…
<Fri Oct 28 11:19:26 2022>	[Info]:	Adding new layer to the model:
		Dense [8]
<Fri Oct 28 11:19:29 2022>	[Info]:	Compiling the current model:
		Input:8
		Flatten 
		Dense [64]
		Dense [32]
		Dense [16]
		Dense [8]
		Output:8

<Fri Oct 28 11:19:29 2022>	[Info]:	Model summary:
Model: "model_0"
_________________________________________________________________
 Layer (type)                Output Shape              Param #   
=================================================================
 input_1 (InputLayer)        [(None, 8, 8, 1)]         0         
                                                                 
 flatten (Flatten)           (None, 64)                0         
                                                                 
 dense (Dense)               (None, 64)                4160      
                                                                 
 dense_1 (Dense)             (None, 32)                2080      
                                                                 
 dense_2 (Dense)             (None, 16)                528       
                                                                 
 dense_3 (Dense)             (None, 8)                 136       
                                                                 
 output (Dense)              (None, 8)                 72        
                                                                 
=================================================================
Total params: 6,976
Trainable params: 6,976
Non-trainable params: 0
_________________________________________________________________

<Fri Oct 28 11:19:29 2022>	[Info]:	The model compiled sucessfuly.
<Fri Oct 28 11:19:30 2022>	[Info]:	Scheme drawn sucessfuly.
…
<Fri Oct 28 11:24:57 2022>	[Info]:	Adding new layer to the model:
		Dense [32]
<Fri Oct 28 11:24:58 2022>	[Info]:	Compiling the current model:
		Input:8
		Flatten 
		Dense [128]
		Dense [64]
		Dense [32]
		Output:8

<Fri Oct 28 11:24:59 2022>	[Info]:	Model summary:
Model: "model_0"
_________________________________________________________________
 Layer (type)                Output Shape              Param #   
=================================================================
 input_1 (InputLayer)        [(None, 8, 8, 1)]         0         
                                                                 
 flatten (Flatten)           (None, 64)                0         
                                                                 
 dense (Dense)               (None, 128)               8320      
                                                                 
 dense_1 (Dense)             (None, 64)                8256      
                                                                 
 dense_2 (Dense)             (None, 32)                2080      
                                                                 
 output (Dense)              (None, 8)                 264       
                                                                 
=================================================================
Total params: 18,920
Trainable params: 18,920
Non-trainable params: 0
_________________________________________________________________

<Fri Oct 28 11:24:59 2022>	[Info]:	The model compiled sucessfuly.
<Fri Oct 28 11:24:59 2022>	[Info]:	Scheme drawn sucessfuly.
…
<Fri Oct 28 12:16:26 2022>	[Info]:	Adding new layer to the model:
		Dense [64]
<Fri Oct 28 12:16:32 2022>	[Info]:	Compiling the current model:
		Input:32
		Flatten 
		Dense [256]
		Dense [128]
		Dense [64]
		Output:32

<Fri Oct 28 12:16:33 2022>	[Info]:	Model summary:
Model: "model_0"
_________________________________________________________________
 Layer (type)                Output Shape              Param #   
=================================================================
 input_1 (InputLayer)        [(None, 8, 8, 1)]         0         
                                                                 
 flatten (Flatten)           (None, 64)                0         
                                                                 
 dense (Dense)               (None, 128)               8320      
                                                                 
 dense_1 (Dense)             (None, 64)                8256      
                                                                 
 dense_2 (Dense)             (None, 32)                2080      
                                                                 
 output (Dense)              (None, 8)                 264       
                                                                 
=================================================================
Total params: 18,920
Trainable params: 18,920
Non-trainable params: 0
_________________________________________________________________
Model: "model_0"
_________________________________________________________________
 Layer (type)                Output Shape              Param #   
=================================================================
 input_2 (InputLayer)        [(None, 32, 32, 1)]       0         
                                                                 
 flatten_1 (Flatten)         (None, 1024)              0         
                                                                 
 dense_3 (Dense)             (None, 256)               262400    
                                                                 
 dense_4 (Dense)             (None, 128)               32896     
                                                                 
 dense_5 (Dense)             (None, 64)                8256      
                                                                 
 output (Dense)              (None, 32)                2080      
                                                                 
=================================================================
Total params: 305,632
Trainable params: 305,632
Non-trainable params: 0
_________________________________________________________________

<Fri Oct 28 12:16:33 2022>	[Info]:	The model compiled sucessfuly.
<Fri Oct 28 12:16:33 2022>	[Info]:	Scheme drawn sucessfuly.
…
<Fri Oct 28 12:32:34 2022>	[Info]:	Unable to train a non-compiled model. Try to compile it first.
<Fri Oct 28 12:32:37 2022>	[Info]:	Compiling the current model:
		Input:32
		Flatten 
		Dense [256]
		Dense [128]
		Dense [64]
		Output:32

<Fri Oct 28 12:32:37 2022>	[Info]:	Model summary:
Model: "model_0"
_________________________________________________________________
 Layer (type)                Output Shape              Param #   
=================================================================
 input_1 (InputLayer)        [(None, 32, 32, 1)]       0         
                                                                 
 flatten (Flatten)           (None, 1024)              0         
                                                                 
 dense (Dense)               (None, 256)               262400    
                                                                 
 dense_1 (Dense)             (None, 128)               32896     
                                                                 
 dense_2 (Dense)             (None, 64)                8256      
                                                                 
 output (Dense)              (None, 32)                2080      
                                                                 
=================================================================
Total params: 305,632
Trainable params: 305,632
Non-trainable params: 0
_________________________________________________________________

<Fri Oct 28 12:32:37 2022>	[Info]:	The model compiled sucessfuly.
<Fri Oct 28 12:32:37 2022>	[Info]:	Scheme drawn sucessfuly.
…
<Fri Oct 28 12:41:26 2022>	[Info]:	Adding new layer to the model:
		Dense [32]
<Fri Oct 28 12:41:27 2022>	[Info]:	Compiling the current model:
		Input:16
		Flatten 
		Dense [128]
		Dense [64]
		Dense [32]
		Output:16

<Fri Oct 28 12:41:27 2022>	[Info]:	Model summary:
Model: "model_0"
_________________________________________________________________
 Layer (type)                Output Shape              Param #   
=================================================================
 input_1 (InputLayer)        [(None, 16, 16, 1)]       0         
                                                                 
 flatten (Flatten)           (None, 256)               0         
                                                                 
 dense (Dense)               (None, 128)               32896     
                                                                 
 dense_1 (Dense)             (None, 64)                8256      
                                                                 
 dense_2 (Dense)             (None, 32)                2080      
                                                                 
 output (Dense)              (None, 16)                528       
                                                                 
=================================================================
Total params: 43,760
Trainable params: 43,760
Non-trainable params: 0
_________________________________________________________________

<Fri Oct 28 12:41:27 2022>	[Info]:	The model compiled sucessfuly.
<Fri Oct 28 12:41:27 2022>	[Info]:	Scheme drawn sucessfuly.
…
<Fri Oct 28 12:55:11 2022>	[Info]:	Adding new layer to the model:
		Dense [32]
<Fri Oct 28 12:55:12 2022>	[Info]:	Compiling the current model:
		Input:32
		Flatten 
		Dense [128]
		Dense [64]
		Dense [32]
		Output:32

<Fri Oct 28 12:55:13 2022>	[Info]:	Model summary:
Model: "model_0"
_________________________________________________________________
 Layer (type)                Output Shape              Param #   
=================================================================
 input_1 (InputLayer)        [(None, 32, 32, 1)]       0         
                                                                 
 flatten (Flatten)           (None, 1024)              0         
                                                                 
 dense (Dense)               (None, 128)               131200    
                                                                 
 dense_1 (Dense)             (None, 64)                8256      
                                                                 
 dense_2 (Dense)             (None, 32)                2080      
                                                                 
 output (Dense)              (None, 32)                1056      
                                                                 
=================================================================
Total params: 142,592
Trainable params: 142,592
Non-trainable params: 0
_________________________________________________________________

<Fri Oct 28 12:55:13 2022>	[Info]:	The model compiled sucessfuly.
<Fri Oct 28 12:55:13 2022>	[Info]:	Scheme drawn sucessfuly.
…
<Fri Oct 28 13:16:16 2022>	[Info]:	Scheme drawn sucessfuly.
<Fri Oct 28 13:16:19 2022>	[Info]:	Compiling the current model:
		Input:32
		Flatten 
		Dense [128]
		Dense [64]
		Dense [32]
		Output:32

<Fri Oct 28 13:16:19 2022>	[Info]:	Model summary:
Model: "model_0"
_________________________________________________________________
 Layer (type)                Output Shape              Param #   
=================================================================
 input_1 (InputLayer)        [(None, 32, 32, 1)]       0         
                                                                 
 flatten (Flatten)           (None, 1024)              0         
                                                                 
 dense (Dense)               (None, 128)               131200    
                                                                 
 dense_1 (Dense)             (None, 64)                8256      
                                                                 
 dense_2 (Dense)             (None, 32)                2080      
                                                                 
 output (Dense)              (None, 32)                1056      
                                                                 
=================================================================
Total params: 142,592
Trainable params: 142,592
Non-trainable params: 0
_________________________________________________________________
Model: "model_1"
_________________________________________________________________
 Layer (type)                Output Shape              Param #   
=================================================================
 input_2 (InputLayer)        [(None, 32, 32, 1)]       0         
                                                                 
 flatten_1 (Flatten)         (None, 1024)              0         
                                                                 
 dense_3 (Dense)             (None, 128)               131200    
                                                                 
 dense_4 (Dense)             (None, 64)                8256      
                                                                 
 dense_5 (Dense)             (None, 32)                2080      
                                                                 
 output (Dense)              (None, 32)                1056      
                                                                 
=================================================================
Total params: 142,592
Trainable params: 142,592
Non-trainable params: 0
_________________________________________________________________

<Fri Oct 28 13:16:19 2022>	[Info]:	The model compiled sucessfuly.
<Fri Oct 28 13:16:19 2022>	[Info]:	Scheme drawn sucessfuly.
…
<Fri Oct 28 13:18:05 2022>	[Info]:	Device /device:GPU:0 set up for Train.
<Fri Oct 28 13:18:08 2022>	[Info]:	Compiling the current model:
		Input:32
		Flatten 
		Dense [128]
		Dense [64]
		Dense [32]
		Output:32

<Fri Oct 28 13:18:08 2022>	[Info]:	Model summary:
Model: "model_0"
_________________________________________________________________
 Layer (type)                Output Shape              Param #   
=================================================================
 input_1 (InputLayer)        [(None, 32, 32, 1)]       0         
                                                                 
 flatten (Flatten)           (None, 1024)              0         
                                                                 
 dense (Dense)               (None, 128)               131200    
                                                                 
 dense_1 (Dense)             (None, 64)                8256      
                                                                 
 dense_2 (Dense)             (None, 32)                2080      
                                                                 
 output (Dense)              (None, 32)                1056      
                                                                 
=================================================================
Total params: 142,592
Trainable params: 142,592
Non-trainable params: 0
_________________________________________________________________
Model: "model_1"
_________________________________________________________________
 Layer (type)                Output Shape              Param #   
=================================================================
 input_2 (InputLayer)        [(None, 32, 32, 1)]       0         
                                                                 
 flatten_1 (Flatten)         (None, 1024)              0         
                                                                 
 dense_3 (Dense)             (None, 128)               131200    
                                                                 
 dense_4 (Dense)             (None, 64)                8256      
                                                                 
 dense_5 (Dense)             (None, 32)                2080      
                                                                 
 output (Dense)              (None, 32)                1056      
                                                                 
=================================================================
Total params: 142,592
Trainable params: 142,592
Non-trainable params: 0
_________________________________________________________________
Model: "model_2"
_________________________________________________________________
 Layer (type)                Output Shape              Param #   
=================================================================
 input_3 (InputLayer)        [(None, 32, 32, 1)]       0         
                                                                 
 flatten_2 (Flatten)         (None, 1024)              0         
                                                                 
 dense_6 (Dense)             (None, 128)               131200    
                                                                 
 dense_7 (Dense)             (None, 64)                8256      
                                                                 
 dense_8 (Dense)             (None, 32)                2080      
                                                                 
 output (Dense)              (None, 32)                1056      
                                                                 
=================================================================
Total params: 142,592
Trainable params: 142,592
Non-trainable params: 0
_________________________________________________________________

<Fri Oct 28 13:18:08 2022>	[Info]:	The model compiled sucessfuly.
<Fri Oct 28 13:18:08 2022>	[Info]:	Scheme drawn sucessfuly.
…
<Fri Oct 28 14:06:48 2022>	[Info]:	Training the current model. Batch size: 64.
<Fri Oct 28 14:07:09 2022>	[Info]:	Compiling the current model:
		Input:16
		Flatten 
		Dense [128]
		Dense [64]
		Dense [32]
		Output:16

<Fri Oct 28 14:07:09 2022>	[Info]:	Model summary:
Model: "model_0"
_________________________________________________________________
 Layer (type)                Output Shape              Param #   
=================================================================
 input_1 (InputLayer)        [(None, 16, 16, 1)]       0         
                                                                 
 flatten (Flatten)           (None, 256)               0         
                                                                 
 dense (Dense)               (None, 128)               32896     
                                                                 
 dense_1 (Dense)             (None, 64)                8256      
                                                                 
 dense_2 (Dense)             (None, 32)                2080      
                                                                 
 output (Dense)              (None, 16)                528       
                                                                 
=================================================================
Total params: 43,760
Trainable params: 43,760
Non-trainable params: 0
_________________________________________________________________
Model: "model_1"
_________________________________________________________________
 Layer (type)                Output Shape              Param #   
=================================================================
 input_2 (InputLayer)        [(None, 16, 16, 1)]       0         
                                                                 
 flatten_1 (Flatten)         (None, 256)               0         
                                                                 
 dense_3 (Dense)             (None, 128)               32896     
                                                                 
 dense_4 (Dense)             (None, 64)                8256      
                                                                 
 dense_5 (Dense)             (None, 32)                2080      
                                                                 
 output (Dense)              (None, 16)                528       
                                                                 
=================================================================
Total params: 43,760
Trainable params: 43,760
Non-trainable params: 0
_________________________________________________________________

<Fri Oct 28 14:07:09 2022>	[Info]:	The model compiled sucessfuly.
<Fri Oct 28 14:07:09 2022>	[Info]:	Scheme drawn sucessfuly.
<Fri Oct 28 14:07:10 2022>	[Info]:	Compiling the current model:
		Input:16
		Flatten 
		Dense [128]
		Dense [64]
		Dense [32]
		Output:16

<Fri Oct 28 14:07:10 2022>	[Info]:	Model summary:
Model: "model_0"
_________________________________________________________________
 Layer (type)                Output Shape              Param #   
=================================================================
 input_1 (InputLayer)        [(None, 16, 16, 1)]       0         
                                                                 
 flatten (Flatten)           (None, 256)               0         
                                                                 
 dense (Dense)               (None, 128)               32896     
                                                                 
 dense_1 (Dense)             (None, 64)                8256      
                                                                 
 dense_2 (Dense)             (None, 32)                2080      
                                                                 
 output (Dense)              (None, 16)                528       
                                                                 
=================================================================
Total params: 43,760
Trainable params: 43,760
Non-trainable params: 0
_________________________________________________________________
Model: "model_1"
_________________________________________________________________
 Layer (type)                Output Shape              Param #   
=================================================================
 input_2 (InputLayer)        [(None, 16, 16, 1)]       0         
                                                                 
 flatten_1 (Flatten)         (None, 256)               0         
                                                                 
 dense_3 (Dense)             (None, 128)               32896     
                                                                 
 dense_4 (Dense)             (None, 64)                8256      
                                                                 
 dense_5 (Dense)             (None, 32)                2080      
                                                                 
 output (Dense)              (None, 16)                528       
                                                                 
=================================================================
Total params: 43,760
Trainable params: 43,760
Non-trainable params: 0
_________________________________________________________________
Model: "model_2"
_________________________________________________________________
 Layer (type)                Output Shape              Param #   
=================================================================
 input_3 (InputLayer)        [(None, 16, 16, 1)]       0         
                                                                 
 flatten_2 (Flatten)         (None, 256)               0         
                                                                 
 dense_6 (Dense)             (None, 128)               32896     
                                                                 
 dense_7 (Dense)             (None, 64)                8256      
                                                                 
 dense_8 (Dense)             (None, 32)                2080      
                                                                 
 output (Dense)              (None, 16)                528       
                                                                 
=================================================================
Total params: 43,760
Trainable params: 43,760
Non-trainable params: 0
_________________________________________________________________

<Fri Oct 28 14:07:10 2022>	[Info]:	The model compiled sucessfuly.
<Fri Oct 28 14:07:10 2022>	[Info]:	Scheme drawn sucessfuly.
…
<Fri Oct 28 14:07:23 2022>	[Info]:	Imported model C:/Users/ialve/CorNet/model_lists/prog_32t.
<Fri Oct 28 14:07:25 2022>	[Info]:	Compiling the current model:
		Input:32
		Flatten 
		Dense [128]
		Dense [64]
		Dense [32]
		Output:32

<Fri Oct 28 14:07:26 2022>	[Info]:	Model summary:
Model: "model_0"
_________________________________________________________________
 Layer (type)                Output Shape              Param #   
=================================================================
 input_1 (InputLayer)        [(None, 16, 16, 1)]       0         
                                                                 
 flatten (Flatten)           (None, 256)               0         
                                                                 
 dense (Dense)               (None, 128)               32896     
                                                                 
 dense_1 (Dense)             (None, 64)                8256      
                                                                 
 dense_2 (Dense)             (None, 32)                2080      
                                                                 
 output (Dense)              (None, 16)                528       
                                                                 
=================================================================
Total params: 43,760
Trainable params: 43,760
Non-trainable params: 0
_________________________________________________________________
Model: "model_1"
_________________________________________________________________
 Layer (type)                Output Shape              Param #   
=================================================================
 input_2 (InputLayer)        [(None, 16, 16, 1)]       0         
                                                                 
 flatten_1 (Flatten)         (None, 256)               0         
                                                                 
 dense_3 (Dense)             (None, 128)               32896     
                                                                 
 dense_4 (Dense)             (None, 64)                8256      
                                                                 
 dense_5 (Dense)             (None, 32)                2080      
                                                                 
 output (Dense)              (None, 16)                528       
                                                                 
=================================================================
Total params: 43,760
Trainable params: 43,760
Non-trainable params: 0
_________________________________________________________________
Model: "model_2"
_________________________________________________________________
 Layer (type)                Output Shape              Param #   
=================================================================
 input_3 (InputLayer)        [(None, 16, 16, 1)]       0         
                                                                 
 flatten_2 (Flatten)         (None, 256)               0         
                                                                 
 dense_6 (Dense)             (None, 128)               32896     
                                                                 
 dense_7 (Dense)             (None, 64)                8256      
                                                                 
 dense_8 (Dense)             (None, 32)                2080      
                                                                 
 output (Dense)              (None, 16)                528       
                                                                 
=================================================================
Total params: 43,760
Trainable params: 43,760
Non-trainable params: 0
_________________________________________________________________
Model: "model_3"
_________________________________________________________________
 Layer (type)                Output Shape              Param #   
=================================================================
 input_4 (InputLayer)        [(None, 32, 32, 1)]       0         
                                                                 
 flatten_3 (Flatten)         (None, 1024)              0         
                                                                 
 dense_9 (Dense)             (None, 128)               131200    
                                                                 
 dense_10 (Dense)            (None, 64)                8256      
                                                                 
 dense_11 (Dense)            (None, 32)                2080      
                                                                 
 output (Dense)              (None, 32)                1056      
                                                                 
=================================================================
Total params: 142,592
Trainable params: 142,592
Non-trainable params: 0
_________________________________________________________________

<Fri Oct 28 14:07:26 2022>	[Info]:	The model compiled sucessfuly.
<Fri Oct 28 14:07:26 2022>	[Info]:	Scheme drawn sucessfuly.
…
	Device 1:	/device:GPU:0		Role: Train

<Fri Oct 28 15:54:09 2022>	[Info]:	Compiling the current model:
		Input:8
		Flatten 
		Dense [64]
		Dense [32]
		Dense [8]
		Output:8

<Fri Oct 28 15:54:10 2022>	[Info]:	Model summary:
Model: "model_0"
_________________________________________________________________
 Layer (type)                Output Shape              Param #   
=================================================================
 input_1 (InputLayer)        [(None, 8, 8, 1)]         0         
                                                                 
 flatten (Flatten)           (None, 64)                0         
                                                                 
 dense (Dense)               (None, 64)                4160      
                                                                 
 dense_1 (Dense)             (None, 32)                2080      
                                                                 
 dense_2 (Dense)             (None, 8)                 264       
                                                                 
 output (Dense)              (None, 8)                 72        
                                                                 
=================================================================
Total params: 6,576
Trainable params: 6,576
Non-trainable params: 0
_________________________________________________________________

<Fri Oct 28 15:54:10 2022>	[Info]:	The model compiled sucessfuly.
<Fri Oct 28 15:54:10 2022>	[Info]:	Scheme drawn sucessfuly.
…
	Device 1:	/device:GPU:0		Role: Train

<Wed Nov  2 13:55:38 2022>	[Info]:	Compiling the current model:
		Input:16
		Conv2D [64, 2]
		Flatten 
		Dense [128]
		Dense [64]
		Dense [32]
		Output:16

<Wed Nov  2 13:55:39 2022>	[Info]:	Model summary:
Model: "model_0"
_________________________________________________________________
 Layer (type)                Output Shape              Param #   
=================================================================
 input_1 (InputLayer)        [(None, 16, 16, 1)]       0         
                                                                 
 conv2d (Conv2D)             (None, 15, 15, 64)        320       
                                                                 
 flatten (Flatten)           (None, 14400)             0         
                                                                 
 dense (Dense)               (None, 128)               1843328   
                                                                 
 dense_1 (Dense)             (None, 64)                8256      
                                                                 
 dense_2 (Dense)             (None, 32)                2080      
                                                                 
 output (Dense)              (None, 16)                528       
                                                                 
=================================================================
Total params: 1,854,512
Trainable params: 1,854,512
Non-trainable params: 0
_________________________________________________________________

<Wed Nov  2 13:55:39 2022>	[Info]:	The model compiled sucessfuly.
<Wed Nov  2 13:55:39 2022>	[Info]:	Scheme drawn sucessfuly.
…
<Wed Nov  2 13:56:50 2022>	[Info]:	Removed ('Conv2D [64, 2]', ('', [])) from the layer list.
<Wed Nov  2 13:56:55 2022>	[Info]:	Compiling the current model:
		Input:16
		Flatten 
		Dense [128]
		Dense [64]
		Dense [32]
		Output:16

<Wed Nov  2 13:56:56 2022>	[Info]:	Model summary:
Model: "model_0"
_________________________________________________________________
 Layer (type)                Output Shape              Param #   
=================================================================
 input_1 (InputLayer)        [(None, 16, 16, 1)]       0         
                                                                 
 conv2d (Conv2D)             (None, 15, 15, 64)        320       
                                                                 
 flatten (Flatten)           (None, 14400)             0         
                                                                 
 dense (Dense)               (None, 128)               1843328   
                                                                 
 dense_1 (Dense)             (None, 64)                8256      
                                                                 
 dense_2 (Dense)             (None, 32)                2080      
                                                                 
 output (Dense)              (None, 16)                528       
                                                                 
=================================================================
Total params: 1,854,512
Trainable params: 1,854,512
Non-trainable params: 0
_________________________________________________________________
Model: "model_1"
_________________________________________________________________
 Layer (type)                Output Shape              Param #   
=================================================================
 input_2 (InputLayer)        [(None, 16, 16, 1)]       0         
                                                                 
 flatten_1 (Flatten)         (None, 256)               0         
                                                                 
 dense_3 (Dense)             (None, 128)               32896     
                                                                 
 dense_4 (Dense)             (None, 64)                8256      
                                                                 
 dense_5 (Dense)             (None, 32)                2080      
                                                                 
 output (Dense)              (None, 16)                528       
                                                                 
=================================================================
Total params: 43,760
Trainable params: 43,760
Non-trainable params: 0
_________________________________________________________________

<Wed Nov  2 13:56:56 2022>	[Info]:	The model compiled sucessfuly.
<Wed Nov  2 13:56:56 2022>	[Info]:	Scheme drawn sucessfuly.
…
<Wed Nov  2 14:02:54 2022>	[Info]:	Compiling the current model:
		Input:16
		Flatten 
		Dropout [0.7]
		Dense [128]
		Dropout [0.7]
		Dense [64]
		Dropout [0.7]
		Dense [32]
		Output:16

<Wed Nov  2 14:02:54 2022>	[Info]:	Model summary:
Model: "model_0"
_________________________________________________________________
 Layer (type)                Output Shape              Param #   
=================================================================
 input_1 (InputLayer)        [(None, 16, 16, 1)]       0         
                                                                 
 flatten (Flatten)           (None, 256)               0         
                                                                 
 dropout (Dropout)           (None, 256)               0         
                                                                 
 dense (Dense)               (None, 128)               32896     
                                                                 
 output (Dense)              (None, 16)                2064      
                                                                 
=================================================================
Total params: 34,960
Trainable params: 34,960
Non-trainable params: 0
_________________________________________________________________
Model: "model_1"
_________________________________________________________________
 Layer (type)                Output Shape              Param #   
=================================================================
 input_2 (InputLayer)        [(None, 16, 16, 1)]       0         
                                                                 
 flatten_1 (Flatten)         (None, 256)               0         
                                                                 
 dropout_1 (Dropout)         (None, 256)               0         
                                                                 
 dense_1 (Dense)             (None, 128)               32896     
                                                                 
 dropout_2 (Dropout)         (None, 128)               0         
                                                                 
 dense_2 (Dense)             (None, 64)                8256      
                                                                 
 dropout_3 (Dropout)         (None, 64)                0         
                                                                 
 dense_3 (Dense)             (None, 32)                2080      
                                                                 
 output (Dense)              (None, 16)                528       
                                                                 
=================================================================
Total params: 43,760
Trainable params: 43,760
Non-trainable params: 0
_________________________________________________________________

<Wed Nov  2 14:02:54 2022>	[Info]:	The model compiled sucessfuly.
<Wed Nov  2 14:02:55 2022>	[Info]:	Scheme drawn sucessfuly.
…
		Dense [32]
<Wed Nov  2 14:10:30 2022>	[Info]:	Compiling the current model:
		Input:16
		Flatten 
		Dropout [0.7]
		Dense [128]
		Dropout [0.7]
		Dense [64]
		Dense [32]
		Output:16

<Wed Nov  2 14:10:30 2022>	[Info]:	Model summary:
Model: "model_0"
_________________________________________________________________
 Layer (type)                Output Shape              Param #   
=================================================================
 input_1 (InputLayer)        [(None, 16, 16, 1)]       0         
                                                                 
 flatten (Flatten)           (None, 256)               0         
                                                                 
 dropout (Dropout)           (None, 256)               0         
                                                                 
 dense (Dense)               (None, 128)               32896     
                                                                 
 dropout_1 (Dropout)         (None, 128)               0         
                                                                 
 dense_1 (Dense)             (None, 64)                8256      
                                                                 
 dense_2 (Dense)             (None, 32)                2080      
                                                                 
 output (Dense)              (None, 16)                528       
                                                                 
=================================================================
Total params: 43,760
Trainable params: 43,760
Non-trainable params: 0
_________________________________________________________________

<Wed Nov  2 14:10:30 2022>	[Info]:	The model compiled sucessfuly.
<Wed Nov  2 14:10:31 2022>	[Info]:	Scheme drawn sucessfuly.
…
<Wed Nov  2 14:53:34 2022>	[Info]:	Adding new layer to the model:
		Dense [64]
<Wed Nov  2 14:53:37 2022>	[Info]:	Compiling the current model:
		Input:16
		Flatten 
		Dense [128]
		Dense [64]
		Output:16

<Wed Nov  2 14:53:37 2022>	[Info]:	Model summary:
Model: "model_0"
_________________________________________________________________
 Layer (type)                Output Shape              Param #   
=================================================================
 input_1 (InputLayer)        [(None, 16, 16, 1)]       0         
                                                                 
 flatten (Flatten)           (None, 256)               0         
                                                                 
 dropout (Dropout)           (None, 256)               0         
                                                                 
 dense (Dense)               (None, 128)               32896     
                                                                 
 dropout_1 (Dropout)         (None, 128)               0         
                                                                 
 dense_1 (Dense)             (None, 64)                8256      
                                                                 
 dense_2 (Dense)             (None, 32)                2080      
                                                                 
 output (Dense)              (None, 16)                528       
                                                                 
=================================================================
Total params: 43,760
Trainable params: 43,760
Non-trainable params: 0
_________________________________________________________________
Model: "model_0"
_________________________________________________________________
 Layer (type)                Output Shape              Param #   
=================================================================
 input_2 (InputLayer)        [(None, 16, 16, 1)]       0         
                                                                 
 flatten_1 (Flatten)         (None, 256)               0         
                                                                 
 dense_3 (Dense)             (None, 128)               32896     
                                                                 
 dense_4 (Dense)             (None, 64)                8256      
                                                                 
 output (Dense)              (None, 16)                1040      
                                                                 
=================================================================
Total params: 42,192
Trainable params: 42,192
Non-trainable params: 0
_________________________________________________________________

<Wed Nov  2 14:53:37 2022>	[Info]:	The model compiled sucessfuly.
<Wed Nov  2 14:53:38 2022>	[Info]:	Scheme drawn sucessfuly.
…
<Wed Nov  2 15:26:31 2022>	[Info]:	Adding new layer to the model:
		Dense [64]
<Wed Nov  2 15:26:33 2022>	[Info]:	Compiling the current model:
		Input:16
		Conv2D [16, 3]
		Flatten 
		Dense [128]
		Dense [64]
		Output:16

<Wed Nov  2 15:26:34 2022>	[Info]:	Model summary:
Model: "model_0"
_________________________________________________________________
 Layer (type)                Output Shape              Param #   
=================================================================
 input_1 (InputLayer)        [(None, 16, 16, 1)]       0         
                                                                 
 conv2d (Conv2D)             (None, 14, 14, 16)        160       
                                                                 
 flatten (Flatten)           (None, 3136)              0         
                                                                 
 dense (Dense)               (None, 128)               401536    
                                                                 
 dense_1 (Dense)             (None, 64)                8256      
                                                                 
 output (Dense)              (None, 16)                1040      
                                                                 
=================================================================
Total params: 410,992
Trainable params: 410,992
Non-trainable params: 0
_________________________________________________________________

<Wed Nov  2 15:26:34 2022>	[Info]:	The model compiled sucessfuly.
<Wed Nov  2 15:26:34 2022>	[Info]:	Scheme drawn sucessfuly.
…
